app/src/main/assets/autoencoder_mobile.pt (torch, 768688 bytes, 12 tensors)

weight f4 [32, 3, 3, 3]
-0.14675471 0.20531648 -0.0066651586 0.05636048 -0.13880864 -0.13185237 -0.18017463 -0.07251488
0.19826813 -0.1842173 0.101210505 0.1759532 -0.14363907 0.10732461 -0.031113889 0.099161096
0.14263627 0.20311962 0.042484954 -0.079265155 -0.10770002 0.07029553 -0.14345407 0.014205156
-0.17597276 0.21582949 0.1422248 0.08207063 0.09365743 0.098809786 0.076834284 -0.042757604
-0.15353085 -0.09076551 0.10157252 0.07302835 0.17748196 0.07757147 -0.043763366 0.021866338
-0.037022647 0.06884683 0.09842365 -0.07088768 0.0189283 -0.052718136 -0.05090964 -0.16254999
0.13134491 -0.07975876 0.043039154 -0.18352936 0.15092751 0.021500416 0.17754708 -0.081580386
-0.10224024 0.13327575 0.015753122 0.08873137 0.16190553 0.17678362 -0.023214562 0.12798561
0.15845226 -0.035289112 0.19620892 0.0048516295 0.04802129 0.08298013 0.09523487 0.07661235
0.032125402 0.13273971 -0.081858456 0.11829823 -0.14851317 0.082708046 -0.17246102 -0.090693355
-0.058952115 0.16404495 -0.1556201 -0.077899195 -0.12513779 0.06603502 0.04411876 0.18127017
-0.022486595 0.07909764 -0.2075242 -0.057727255 0.11620041 -0.16001058 0.11622021 -0.16604228
0.16621718 -0.14431062 -0.071921624 0.01601334 0.021523524 -0.04517536 -0.17710684 0.12870513
0.16232432 -0.1912007 -0.15637314 0.082893886 0.057581794 0.17168976 0.09195792 0.055024814
0.1896677 -0.017123574 -0.039006166 -0.14703697 0.1175852 0.13006413 -0.16765743 -0.06881611
-0.047372166 0.077534884 -0.054009207 -0.114253834 0.16581987 -0.032545287 -0.136298 -0.1088834
0.09189419 -0.17126551 0.012870425 0.125244 -0.16699663 0.20306374 0.03319365 0.18799062
0.1400832 0.109474845 0.05860065 0.039520856 0.1777193 0.029310199 -0.029068777 0.04737144
-0.18759601 -0.07004238 0.1414194 -0.12031754 -0.17558663 -0.04043993 -0.1608778 0.010634946
-0.12828706 0.17725931 0.059922278 -0.16652685 0.03389345 -0.1716062 -0.15661032 -0.02021784
0.09541869 0.13515313 -0.10238395 -0.009955729 0.00048715985 0.14695546 -0.057366714 0.05710949
-0.069220036 -0.085158825 -0.12500854 0.04837932 -0.048788786 0.18211387 0.16727805 0.081577696
-0.013544739 0.09938066 0.16545224 0.10758601 -0.08692887 0.16386703 0.105398335 0.1703904
-0.04370441 -0.022878332 -0.080537535 -0.07431245 -0.043810647 -0.06960047 0.07910131 0.10432792
-0.08537261 0.14375557 0.0741574 -0.0522552 0.13511927 0.12969756 0.040811658 0.16625549
0.03370259 0.19169016 0.047560506 -0.058186457 0.07392286 -0.070928685 -0.11713108 0.07003314
0.044763412 0.01630201 0.13453454 -0.0027536799 -0.17527671 -0.017910732 -0.07193765 0.14537753
-0.16648754 -0.058907088 0.11498601 0.16851948 -0.06406696 -0.05409728 -0.1243487 0.029083202
-0.029963294 0.010833431 0.1427983 -0.07904067 0.09218093 -0.17426118 -0.13620603 0.068705805
0.19235848 -0.02779893 -0.15093379 -0.09615906 -0.074247874 0.18286858 0.06466732 -0.01437482
0.16332394 0.014953727 -0.16628887 -0.10033185 0.06065709 -0.06902065 -0.12532526 0.1392667
0.05347546 0.18252003 -0.013251957 0.038414616 -0.14279495 -0.13086765 -0.06562147 -0.133642
00000000: de46 16be 7c3e 523e 6767 dabb 3fda 663d
00000010: da23 0ebe 4f04 07be b37f 38be ae82 94bd
00000020: cd06 4b3e 76a3 3cbe 7447 cf3d 132d 343e
00000030: 1f16 13be 01cd db3d 8ee2 febc f914 cb3d
00000040: 3e0f 123e 97fe 4f3e b404 2e3d c555 a2bd
00000050: d491 dcbd 1af7 8f3d a0e5 12be bebc 683c
00000060: 3432 34be 6802 5d3e 61a3 113e a514 a83d
00000070: 77cf bf3d c95c ca3d 4b5b 9d3d 9922 2fbd
00000080: 3137 1dbe 45e3 b9bd 4105 d03d e38f 953d
00000090: d5bd 353e cadd 9e3d 3741 33bd 0921 b33c
000000a0: 0fa5 17bd 91ff 8c3d 5792 c93d 8f2d 91bd
000000b0: 860f 9b3c f9ee 57bd a086 50bd 8173 26be
000000c0: 487f 063e 9058 a3bd d349 303d 1fef 3bbe
000000d0: be8c 1a3e a421 b03c e7ce 353e 9e13 a7bd
000000e0: 5563 d1bd 7079 083e b10c 813c cbb8 b53d
000000f0: 90ca 253e c406 353e 772c bebc a90e 033e
00000100: 4f41 223e 518b 10bd feea 483e 6bfa 9e3b
00000110: f9b1 443d 7df1 a93d 800a c33d f0e6 9c3d
00000120: ed95 033d ebec 073e 68a5 a7bd 5846 f23d
00000130: d613 18be d662 a93d 9f99 30be 70bd b9bd
00000140: c677 71bd 66fb 273e e05a 1fbe 9d89 9fbd
00000150: 1f24 00be 5e3d 873d dfb5 343d e39e 393e
00000160: cf35 b8bc f2fd a13d 3981 54be 6a73 6cbd
00000170: 7bfa ed3d d0d9 23be dd04 ee3d fd06 2abe
00000180: d634 2a3e 2ac6 13be a54b 93bd 682e 833c
00000190: 1a52 b03c cc09 39bd 7f5b 35be 47cb 033e
000001a0: 5938 263e 1eca 43be 4820 20be 45c4 a93d
000001b0: e3da 6b3d 71cf 2f3e 6f54 bc3d b361 613d
000001c0: 4038 423e bd46 8cbc eec4 1fbd dc90 16be
000001d0: 82d0 f03d 882f 053e 64ae 2bbe 76ef 8cbd
000001e0: 5109 42bd 9cca 9e3d c238 5dbd eafd e9bd
000001f0: afcc 293e 354e 05bd b491 0bbe 43fe debd
00000200: 0533 bc3d 3a60 2fbe 7ade 523c f73f 003e
00000210: 2a01 2bbe f1ef 4f3e 11f6 073d 9d80 403e
00000220: f871 0f3e 5934 e03d 3c07 703d 9fe0 213d
00000230: 0cfc 353e f11b f03c a521 eebc 8e08 423d
00000240: 2b19 40be 6172 8fbd 3fd0 103e 0b69 f6bd
00000250: fbcc 33be 57a4 25bd 26bd 24be 323e 2e3c
00000260: af5d 03be 7783 353e 1071 753d 0486 2abe
00000270: dcd3 0a3d 89b9 2fbe 755e 20be e29f a5bc
00000280: e06a c33d 9565 0a3e adae d1bd 5b1d 23bc
00000290: 7d69 ff39 7e7b 163e 5cf9 6abd a4eb 693d
000002a0: 3cc3 8dbd c067 aebd 3d02 00be 6529 463d
000002b0: c0d6 47bd 0f7c 3a3e f04a 2b3e 3512 a73d
000002c0: c1ea 5dbc 1688 cb3d 506c 293e 0e56 dc3d
000002d0: c307 b2bd c2cc 273e 15db d73d d27a 2e3e
000002e0: 6503 33bd 576b bbbc ddf0 a4bd 2031 98bd
000002f0: cb72 33bd b18a 8ebd deff a13d e0a9 d53d
00000300: d6d7 aebd a934 133e d6df 973d 8c09 56bd
00000310: b55c 0a3e 70cf 043e 202a 273d e13e 2a3e
00000320: ba0b 0a3d 6d4a 443e cece 423d ec54 6ebd
00000330: de64 973d 0f43 91bd 6be2 efbd 896d 8f3d
00000340: d759 373d cb8b 853c 6cc3 093e 1577 34bb
00000350: bd7b 33be 87b9 92bc 0c54 93bd d9dd 143e
00000360: b67b 2abe 8f48 71bd c97d eb3d 5f90 2c3e
00000370: 8a35 83bd 1c95 5dbd 88aa febd e53f ee3c
00000380: 9575 f5bc b47e 313c b839 123e 13e0 a1bd
00000390: 5bc9 bc3d 8671 32be 9879 0bbe a1b5 8c3d
000003a0: 9ff9 443e 95ba e3bc 638e 1abe 0bef c4bd
000003b0: 450f 98bd e741 3b3e 4d70 843d 5d84 6bbc
000003c0: 643e 273e 7a00 753c a147 2abe c97a cdbd
000003d0: 9273 783d b35a 8dbd 4455 00be ee9b 0e3e
000003e0: 1509 5b3d 88e6 3a3e bc1e 59bc a558 1d3d
000003f0: d738 12be 2b02 06be 8d64 86bd 73d9 08be

bias f4 [32]
-0.07609235 0.16842306 0.07855374 0.08558434 -0.12396231 0.104992814 -0.15248244 0.13471399
0.19943973 -0.07543355 -0.10100969 0.105907075 0.001267038 -0.18921065 0.0040612197 -0.17426813
-0.13268597 -0.122539386 -0.027008321 -0.02734191 0.11036125 -0.005161423 -0.04406361 0.14879744
-0.065431684 0.16258676 0.1886747 0.028491208 -0.0499978 -0.16419841 0.010319441 0.12723891
00000000: 4ed6 9bbd 1877 2c3e c9e0 a03d d846 af3d
00000010: f4df fdbd 7906 d73d 5b24 1cbe 77f2 093e
00000020: ee39 4c3e e87c 9abd 2bde cebd cfe5 d83d
00000030: be12 a63a 70c0 41be fb13 853b 5873 32be
00000040: d5de 07be eef5 fabd 8e40 ddbc 24fc dfbc
00000050: 1405 e23d 2721 a9bb 0b7c 34bd 5b5e 183e
00000060: 0c01 86bd 257d 263e f133 413e 6566 e93c
00000070: 7eca 4cbd a123 28be df12 293c eb4a 023e

weight f4 [64, 32, 3, 3]
0.053946145 0.044333413 -0.08469765 -0.00908345 0.006585058 -0.037436623 0.08013471 0.070853785
-0.02054208 0.046937 0.0021663858 0.044956967 -0.008863113 -0.01770601 -0.057055146 -0.045154218
0.004998879 0.04581976 -0.04153462 0.006367276 0.042358793 0.050444156 0.008286089 0.009715429
0.030451313 0.046363894 -0.01113206 0.1746365 0.04556828 0.053619258 0.07274798 2.5848396e-05
-0.11217332 0.06918045 0.02889804 -0.087482736 0.052944485 0.036067717 -0.035058085 0.08983743
0.014042255 0.058537763 -0.010701063 0.022711948 0.036183313 0.033205077 -0.028483998 0.025460241
0.05898968 -0.03806513 0.05228149 0.04352889 0.033685517 0.02441872 -0.04597287 0.06305944
-0.009131201 0.06385828 0.048082553 -0.027369078 0.040703524 0.01866043 0.039065517 -0.036945593
-0.046310335 0.057926714 -0.016779114 0.03954614 -0.037838716 0.020096233 0.025542155 -0.043117896
-0.04202647 -0.008947227 -0.043466546 -0.083913796 0.009565226 -0.027839702 -0.07661055 -0.08141684
0.012741435 0.045263067 0.044470876 0.0018194229 0.042952675 0.066087976 0.07234506 -0.036743924
0.025170512 -0.056058463 -0.00890433 0.04772544 0.064776115 0.047657564 0.06610031 -0.00822818
0.0115552265 0.0334825 0.051923625 -0.024443833 0.03479246 0.050800983 0.02492383 0.044671055
-0.051059812 -0.005438786 -0.04169876 0.0061288765 -0.017318089 -0.0055931485 -0.03331536 -0.059158515
-0.00038736488 -0.006680982 -0.00062962394 0.0050616004 0.027192622 0.04281784 -0.00042119867 0.019317547
0.037310727 0.10891315 0.15144065 0.035885558 0.07913256 -0.0049030893 -0.102737054 -0.041911297
0.02457476 -0.17184618 -0.080256455 0.028800143 -0.019115787 -0.09686862 -0.017059786 0.06382268
-0.024691647 0.04868049 -0.032525033 0.023777643 0.009387885 -0.026784895 0.08749984 0.07373881
0.012844506 0.040229976 0.047909547 -0.052992247 0.019846702 -0.036732994 -0.008586441 0.03637452
0.011424841 0.16244642 0.1261369 0.1905208 0.021064837 0.085241936 0.06429311 0.02072755
0.040611044 0.106065914 0.039796744 -0.010699124 -0.023095924 0.01448279 0.05520276 0.0476887
0.02213239 -0.0032400934 0.048603922 -0.073366605 0.002610337 0.061927866 0.047876988 0.022786353
0.033217147 -0.026631797 0.025400843 0.050660513 -0.004868689 -0.014389342 0.033361137 -0.025180928
-0.06666064 0.028738271 0.024110835 -0.016149692 -0.04006641 0.038883463 -0.029464664 0.017984418
0.029620877 0.026037294 0.055419177 -0.04402199 0.0042273733 -0.051875103 0.022865616 0.03279833
-0.027568167 -0.0068667624 0.018374177 0.060179416 0.022433924 0.034648366 -0.001520136 -0.002782573
-0.02044273 0.05833438 -0.011338753 0.05651319 -0.036520496 0.012934367 -0.015311077 0.022396903
-0.050406143 -0.043122534 -0.015715996 -0.011710591 0.048006 0.06078767 0.05400306 0.0012507209
-0.015955174 -0.00740617 -0.059226368 -0.00561098 -0.068416946 0.0042165117 0.005010305 -0.0243681
0.029701667 0.052467998 -0.030393032 -0.012819202 0.007795635 -0.05477816 0.037129246 0.011849003
0.030560266 0.023885742 -0.055520155 0.05218067 -0.021707727 0.006132233 0.0179135 -0.047128033
0.03787339 0.05141589 -0.016303038 0.05702475 0.027700115 0.044760626 -0.0437395 0.042562068
00000000: a2f6 5c3d f496 353d f675 adbd c0d2 14bc
00000010: 78c7 d73b 2557 19bd ab1d a43d ca1b 913d
00000020: dd47 a8bc 0341 403d ecf9 0d3b cc24 383d
00000030: 9736 11bc 320c 91bc a8b2 69bd a1f3 38bd
00000040: a3cd a33b 80ad 3b3d 3520 2abd 95a4 d03b
00000050: 6a80 2d3d 889e 4e3d 60c2 073c 762d 1f3c
00000060: 0875 f93c 11e8 3d3d 3e63 36bc e9d3 323e
00000070: cea5 3a3d de9f 5b3d e5fc 943d 02d5 d837
00000080: 20bb e5bd 7bae 8d3d 95bb ec3c 262a b3bd
00000090: 51dc 583d bebb 133d 1199 0fbd b0fc b73d
000000a0: 7c11 663c 4bc5 6f3d 8353 2fbc 680e ba3c
000000b0: f434 143d 0c02 083d 4657 e9bc ff91 d03c
000000c0: 2a9f 713d 2fea 1bbd 1e25 563d 594b 323d
000000d0: d3f9 093d c409 c83c 0c4e 3cbd 4f25 813d
000000e0: 089b 15bc 21c8 823d 36f2 443d 1e35 e0bc
000000f0: bdb8 263d c2dd 983c 2a03 203d 4354 17bd
00000100: e8af 3dbd 9044 6d3d 5a74 89bc 22fb 213d
00000110: c5fc 1abd dba0 a43c c83d d13c 649c 30bd
00000120: f323 2cbd 6497 12bc fa09 32bd ffda abbd
00000130: 77b7 1c3c 1610 e4bc fee5 9cbd dfbd a6bd
00000140: 74c1 503c c465 393d 1827 363d b479 ee3a
00000150: 25ef 2f3d 2259 873d a629 943d cc80 16bd
00000160: 6432 ce3c 8f9d 65bd 78e3 11bc c07b 433d
00000170: 57a9 843d 9434 433d 995f 873d 7dcf 06bc
00000180: 2252 3d3c f224 093d dead 543d 6f3e c8bc
00000190: 8a82 0e3d b114 503d 0f2d cc3c fff8 363d
000001a0: 1824 51bd d837 b2bb 52cc 2abd bed4 c83b
000001b0: aade 8dbc bb46 b7bb b075 08bd 3350 72bd
000001c0: 3c17 cbb9 24ec dabb 590d 25ba c8db a53b
000001d0: 10c3 de3c c261 2f3d 54d4 dcb9 d53f 9e3c
000001e0: 22d3 183d dc0d df3d 4213 1b3e bcfc 123d
000001f0: 4010 a23d 18aa a0bb ce67 d2bd 2eab 2bbd
00000200: 0251 c93c 72f8 2fbe 7f5d a4bd 47ee eb3c
00000210: b698 9cbc 0e63 c6bd f7c0 8bbc 77b5 823d
00000220: 2346 cabc 3265 473d f838 05bd 55c9 c23c
00000230: a5cf 193c ff6b dbbc 1e33 b33d 6004 973d
00000240: c371 523c 30c8 243d cd3c 443d 660e 59bd
00000250: 8d95 a23c 5675 16bd 25ae 0cbc 73fd 143d
00000260: 422f 3b3c 5b58 263e 082a 013e e217 433e
00000270: 2a90 ac3c 5393 ae3d 1bac 833d d3cc a93c
00000280: c457 263d 1639 d93d e901 233d 614b 2fbc
00000290: aa33 bdbc 3949 6d3c 4a1c 623d 3a55 433d
000002a0: fc4e b53c bf57 54bb e814 473d 3b41 96bd
000002b0: 3012 2b3b 13a8 7d3d a91a 443d 72aa ba3c
000002c0: b40e 083d ed2a dabc 6e15 d03c 6681 4f3d
000002d0: 8689 9fbb 46c1 6bbc b0a5 083d 3c48 cebc
000002e0: 6085 88bd 866c eb3c 1684 c53c 5c4c 84bc
000002f0: ad1c 24bd 4444 1f3d e15f f1bc 0f54 933c
00000300: 7ba7 f23c 2a4c d53c 38ff 623d 6750 34bd
00000310: c785 8a3b fd7a 54bd ac50 bb3c 8b57 063d
00000320: a3d6 e1bc 9402 e1bb 7185 963c b17e 763d
00000330: 59c7 b73c 72eb 0d3d 4d3f c7ba d45b 36bb
00000340: 8377 a7bc 08f0 6e3d 2dc6 39bc 607a 673d
00000350: 8496 15bd abea 533c 50db 7abc b679 b73c
00000360: ac76 4ebd 41a1 30bd d5be 80bc c7dd 3fbc
00000370: f1a1 443d 7efc 783d 5032 5d3d 3bef a33a
00000380: 6db4 82bc 75af f2bb 5997 72bd 50dc b7bb
00000390: 2f1e 8cbd aa2a 8a3b 7c2d a43b 9c9f c7bc
000003a0: e950 f33c afe8 563d cffa f8bc a107 52bc
000003b0: 8772 ff3b 105f 60bd d614 183d 5222 423c
000003c0: 8659 fa3c 08ac c33c 1a69 63bd 66bb 553d
000003d0: 67d4 b1bc e6f0 c83b 55bf 923c 5309 41bd
000003e0: 2121 1b3d 7899 523d f38d 85bc c992 693d
000003f0: 5aeb e23c eb56 373d 3128 33bd 9055 2e3d

bias f4 [64]
0.003832932 0.0052828444 0.08184906 0.036392488 -0.037361015 -0.014860271 -0.06384311 0.079677425
0.08289665 0.04232063 0.021319723 -0.0055395844 0.023544405 -0.0394562 -0.058725998 0.03041656
-0.01628684 -0.066408835 0.01479579 -0.043309417 -0.016809165 -0.048305534 -0.0291705 0.010178681
0.057088718 -0.00057966856 -0.016337227 0.057400063 -0.0038842617 0.07306469 0.077397645 0.0392517
0.04579887 -0.028829282 -0.033546403 0.0702301 -0.052898295 0.011333242 0.049492236 -0.061301205
-0.05555136 0.13417047 -0.0196059 -0.00066287344 -0.039424397 0.0011941699 0.0020221742 0.054336205
0.027907133 0.14755538 -0.012611547 -0.0277114 -0.03157321 -0.005634454 -0.03329674 0.07424735
0.06483211 0.044228256 0.023471076 0.0018466543 0.00048227477 -0.006171537 -0.040002532 0.044752676
00000000: ee31 7b3b b61b ad3b 7ba0 a73d 4a10 153d
00000010: dd07 19bd 7e78 73bc 2dc0 82bd eb2d a33d
00000020: b8c5 a93d 6658 2d3d b3a6 ae3c 6785 b5bb
00000030: 32e0 c03c d39c 21bd ac8a 70bd 262c f93c
00000040: fb6b 85bc 5b01 88bd 0b6a 723c 3765 31bd
00000050: 60b3 89bc 06dc 45bd f9f6 eebc 7cc4 263c
00000060: dcd5 693d e6f4 17ba a6d5 85bc 541c 6b3d
00000070: 198f 7ebb f1a2 953d a882 9e3d 64c6 203d
00000080: 9997 3b3d 632b ecbc f467 09bd ccd4 8f3d
00000090: e2ab 58bd 10af 393c 5fb8 4a3d f916 7bbd
000000a0: d389 63bd fc63 093e 8d9c a0bc afc4 2dba
000000b0: 7a7b 21bd b185 9c3a 7486 043b a48f 5e3d
000000c0: 809d e43c c218 173e a9a0 4ebc 0503 e3bc
000000d0: e952 01bd 3aa1 b8bb 2a62 08bd ff0e 983d
000000e0: b3c6 843d b028 353d 6a46 c03c 700b f23a
000000f0: d3d9 fc39 9b3a cabb b2d9 23bd 954e 373d

weight f4 [128, 64, 3, 3]
0.011074262 -0.027227178 -0.00083538226 0.031952664 -0.007667656 -0.035956815 0.042841874 0.05864302
0.031291578 0.0018945417 0.003591304 -0.040079955 0.015476091 -0.011998612 0.012814258 0.03056761
-0.0017890518 0.03541926 0.027293514 0.013320348 0.008092442 -0.024096802 -0.02824912 -0.047804493
0.020157937 -0.038236003 -0.029673751 0.047366872 0.08344079 0.011820385 0.021821396 0.013061815
0.04603896 0.07798836 0.06365935 0.007624498 -0.014468834 -0.0027932744 -0.034364413 0.007748891
0.009473322 -0.01819205 0.022686975 -0.032180663 -0.028065683 0.018744519 0.0070822756 0.016468352
0.00040563074 0.025921887 0.004460681 0.031491574 0.021740355 -0.013160947 0.0149099035 0.01039161
-0.047098305 -0.010810341 0.021169316 -0.009648266 0.013966286 0.033242565 0.072194315 -0.0054665636
0.033323154 0.074418135 0.02706118 0.023955977 0.013295802 0.031316034 0.019714672 -0.045215525
0.0050847507 0.015921772 0.023049152 -0.02236584 0.01605508 0.03057313 0.002263164 -0.030873109
-0.050851975 -0.002266406 -0.03066013 0.021440342 0.012429767 0.044669203 0.022794828 0.033409238
0.015932491 0.02827003 0.013601452 -0.043199062 -0.0049124337 0.015377101 -0.040918946 -0.015810546
0.0024762873 0.011361119 0.05915034 0.00064399256 -0.029983405 0.008625557 -0.009452702 0.031074012
0.027585879 0.027365297 0.0150510585 0.07508167 -0.0094604045 -0.039631516 0.016823793 0.013695865
-0.04044014 -0.042462353 -0.008939637 -0.013759775 0.011388205 0.020858146 -0.010521398 -0.018010203
0.0174279 0.0153578585 0.014986937 0.029327627 0.039256483 0.033365306 0.0057466803 -0.04121713
0.030103788 0.017240973 0.034644138 -0.027223788 0.010595863 -0.007845935 -0.03642337 0.011488123
-0.025340885 -0.0053032516 0.025293393 0.043256544 -0.026007079 -0.028421711 0.0056434097 0.036438357
0.06889787 0.019422676 0.02290308 0.036058612 -0.013899405 -0.021604814 -0.021378685 -0.0019042342
-0.05122359 -0.012629441 0.03148407 -0.021149784 0.014040726 0.059022482 -0.015575771 0.007821926
0.04078421 0.04783857 0.02080005 -0.037987765 -0.04741694 -0.02737396 0.0049718847 -0.03066543
0.05592616 0.06693166 0.008040492 -0.031718634 -0.023627443 -0.012901543 -0.014967749 -0.024824906
-0.015201914 -0.004345401 0.046067286 0.030947989 -0.023549104 -0.038088184 -0.00832337 0.002687006
0.016143026 -0.00428367 0.027262162 0.059432387 0.025219887 -0.041717377 -0.044342995 0.00664397
-0.014474217 -0.021122567 -0.021251412 0.03335316 0.03201216 -0.015928322 -0.011756645 0.025080517
0.0074326354 -0.0394835 0.010493356 -0.010361494 0.01528995 0.022846807 0.028928665 0.009046404
-8.6694956e-05 0.029528107 0.00991494 0.012191209 -0.0023397251 0.019717397 0.025254972 0.054116704
0.06123509 0.07526797 0.054865383 0.021870043 -0.040424008 -0.02003447 -0.022858243 -0.009215964
-0.06821223 0.03137842 0.06618964 0.04358297 0.04256598 0.009440529 0.022441316 -0.0001793092
-0.04165278 -0.009276501 -0.02896569 0.0012149378 -0.00042986858 0.034524076 -0.004394876 0.00094150193
-0.0035369084 0.009511092 0.012947288 0.065927655 -0.0013693086 0.031778023 -0.011181978 -0.00012750202
-0.017717792 0.009084546 -0.04034003 -0.015454794 -0.013340172 -0.01297229 -0.047583498 0.001677503
00000000: d270 353c 880b dfbc 8efd 5aba cce0 023d
00000010: f640 fbbb 7447 13bd f67a 2f3d aa33 703d
00000020: 992b 003d 4552 f83a 155c 6b3b e12a 24bd
00000030: 6e8f 7d3c d495 44bc e5f2 513c ed68 fa3c
00000040: 9e7e eaba c913 113d a696 df3c 973d 5a3c
00000050: 2996 043c a866 c5bc b36a e7bc a5ce 43bd
00000060: 4222 a53c 5b9d 1cbd 5e16 f3bc c403 423d
00000070: 01e3 aa3d 4aaa 413c c9c2 b23c 3901 563c
00000080: 5993 3c3d 5cb8 9f3d d55f 823d edd6 f93b
00000090: b00e 6dbc 5e0f 37bb b3c1 0cbd 69ea fd3b
000000a0: fe35 1b3c 7e07 95bc 09da b93c dfcf 03bd
000000b0: 01ea e5bc 1b8e 993c 6f12 e83b a3e8 863c
000000c0: d6aa d439 235a d43c e82a 923b 4ffd 003d
000000d0: d418 b23c 03a1 57bc ab48 743c 9241 2a3c
000000e0: 27ea 40bd db1d 31bc 466b ad3c c313 1ebc
000000f0: d9d2 643c 5b29 083d 9dda 933d dc20 b3bb
00000100: dc7d 083d 8968 983d 68af dd3c 533f c43c
00000110: a3d6 593c 3e45 003d aa80 a13c ea33 39bd
00000120: fb9d a63b 606e 823c 93d1 bc3c 9138 b7bc
00000130: f185 833c 8074 fa3c 9751 143b 9ae9 fcbc
00000140: 294a 50bd fc87 14bb f42a fbbc a8a3 af3c
00000150: 39a6 4b3c 0ef7 363d 38bc ba3c 20d8 083d
00000160: db84 823c 8d96 e73c a0d8 5e3c 80f1 30bd
00000170: 7bf8 a0bb 3cf0 7b3c a09a 27bd 1e85 81bc
00000180: 3549 223b fd23 3a3c a047 723d 9cd1 283a
00000190: c29f f5bc 3552 0d3c 81df 1abc ed8e fe3c
000001a0: c8fb e13c 302d e03c b798 763c 6bc4 993d
000001b0: d0ff 1abc a854 22bd 0dd2 893c 9f64 603c
000001c0: 8fa4 25bd 01ed 2dbd 8e77 12bc ae70 61bc
000001d0: 9895 3a3c b4de aa3c f161 2cbc 228a 93bc
000001e0: f5c4 8e3c 879f 7b3c c58b 753c 7e40 f03c
000001f0: 68cb 203d 0faa 083d a64e bc3b 4bd3 28bd
00000200: 389c f63c f13c 8d3c 03e7 0d3d 6c04 dfbc
00000210: 459a 2d3c 3d8c 00bc ac30 15bd ae38 3c3c
00000220: b097 cfbc e6c6 adbb 1734 cf3c c62d 313d
00000230: cc0c d5bc a6d4 e8bc 5aec b83b 6340 153d
00000240: 541a 8d3d 4e1c 9f3c 3d9f bb3c 32b2 133d
00000250: 54ba 63bc 94fc b0bc 5a22 afbc 7f97 f9ba
00000260: d4cf 51bd b7eb 4ebc 71f5 003d 5042 adbc
00000270: 130b 663c 8fc1 713d 8531 7fbc 8927 003c
00000280: 580d 273d 60f2 433d de64 aa3c 0f99 1bbd
00000290: 4438 42bd 5b3f e0bc 31eb a23b 1136 fbbc
000002a0: d412 653d 7713 893d 45bc 033c 66eb 01bd
000002b0: 578e c1bc fe60 53bc 4a3b 75bc 9a5d cbbc
000002c0: 7311 79bc de63 8ebb 0db1 3c3d a386 fd3c
000002d0: 0dea c0bc 5b02 1cbd be5e 08bc 7b18 303b
000002e0: 613e 843c 075e 8cbb e654 df3c 606f 733d
000002f0: f099 ce3c d7df 2abd 00a1 35bd a9b5 d93b
00000300: 4425 6dbc 3c09 adbc 7117 aebc 539d 083d
00000310: 2f1f 033d 1d7c 82bc f19e 40bc a875 cd3c
00000320: 778d f33b 73b9 21bd 53ec 2b3c 41c3 29bc
00000330: b382 7a3c 3a29 bb3c cffb ec3c 5e37 143c
00000340: 00d0 b5b8 eee4 f13c 4672 223c a3bd 473c
00000350: 1356 19bb 6186 a13c 84e3 ce3c 7aa9 5d3d
00000360: a5d1 7a3d 1826 9a3d 86ba 603d ce28 b33c
00000370: a593 25bd 541f a4bc 3641 bbbc 8efe 16bc
00000380: dbb2 8bbd a886 003d 6f8e 873d 0e84 323d
00000390: aa59 2e3d 73ac 1a3c dad6 b73c f204 3cb9
000003a0: 1b9c 2abd 77fc 17bc 7449 edbc 8c3e 9f3a
000003b0: fc5f e1b9 1e69 0d3d e402 90bb 20cf 763a
000003c0: 7acb 67bb 69d4 1b3c dd20 543c 1405 873d
000003d0: 5f7a b3ba ac29 023d 9d34 37bc 10b2 05b9
000003e0: e724 91bc 59d7 143c 963b 25bd 1b36 7dbc
000003f0: bd90 5abc ba89 54bc eae6 42bd a9df db3a

bias f4 [128]
-0.022884777 0.05042417 -0.012898797 0.0031077198 0.057036504 -0.00976618 0.05050003 0.04039852
0.056416884 0.06876116 0.06579794 0.058432028 0.0071822726 0.059466567 -0.050780177 0.0632287
-0.04686961 -0.014551047 0.030958219 0.058884744 -0.02224413 -0.040174894 0.030419236 0.022974648
-0.047320656 0.061952725 0.00035417543 -0.013589663 -0.025646403 -0.025790555 -0.007982603 0.039234
0.036504444 0.028162306 0.07164405 -0.034871683 0.02031516 0.045060918 -0.027826317 0.04350881
0.010198101 0.0010214655 0.019851703 -0.04526969 0.033758864 -0.01636514 0.07448717 -0.03454123
0.010872164 -0.00993977 0.01547857 -0.031053063 -0.041241873 -0.045029256 0.01831215 0.054359045
-0.0142613435 0.033944823 0.07289021 -0.003187734 -0.043637898 0.053701468 0.022889832 -0.0269258
0.05182892 0.0039193584 -0.021891361 -0.029558456 0.029746033 0.045268957 -0.017174587 -0.016424147
0.021161398 0.060205236 -0.023885882 0.012441272 0.069783166 0.046392106 0.007879798 -0.015523106
-0.042901326 0.064035475 -0.043890566 -0.026790438 -0.038772844 -0.0044682417 0.0903642 -0.032381933
-0.04167185 0.05842961 0.017008439 0.022175306 -0.018373525 0.0682415 -0.05569936 0.074848056
0.081313364 0.017627263 0.0054380465 -0.030712275 -0.04601331 -0.0127400495 0.02932112 0.019295432
-0.03172858 -0.039619885 -0.03859264 0.028151754 0.004399341 -0.026173204 -0.0215255 0.049093623
0.056603137 0.016698528 0.060127962 -0.009356485 0.025748994 0.07449577 0.060253795 -0.052969113
-0.03528835 -0.042746633 -0.039662242 0.045338754 -0.002104764 0.0039271344 -0.042772643 0.055902738
00000000: db78 bbbc 9389 4e3d 7a55 53bc e3aa 4b3b
00000010: 1c9f 693d 5402 20bc 1fd9 4e3d eb78 253d
00000020: 6415 673d a7d2 8c3d 12c1 863d 6c56 6f3d
00000030: 4559 eb3b 3793 733d e0fe 4fbd 0c7e 813d
00000040: 59fa 3fbd 8467 6ebc 179c fd3c 2131 713d
00000050: 5239 b6bc 6e8e 24bd c331 f93c 5435 bc3c
00000060: 4ed3 41bd 24c2 7d3d 9fb0 b939 2ea7 5ebc
00000070: 6818 d2bc b746 d3bc 77c9 02bc d5b3 203d
00000080: af85 153d a3b4 e63c 1eba 923d 9cd5 0ebd
00000090: fa6b a63c cc91 383d 04f4 e3bc 4b36 323d
000000a0: f015 273c b2e2 853a 0aa0 a23c b66c 39bd
000000b0: bc46 0a3d 3010 86bc bb8c 983d 1b7b 0dbd
000000c0: 2921 323c 6bda 22bc d499 7d3c fe62 febc
000000d0: 3ded 28bd 9970 38bd 5d03 963c 97a7 5e3d
000000e0: 69a8 69bc ba09 0b3d 7647 953d 4de9 50bb
000000f0: a7bd 32bd 12f6 5b3d 7583 bb3c 7f93 dcbc
00000100: 904a 543d f66d 803b 8355 b3bc 9324 f2bc
00000110: f4ad f33c f16b 393d b8b1 8cbc ef8b 86bc
00000120: ab5a ad3c c499 763d 53ac c3bc 7ad6 4b3c
00000130: 7aea 8e3d a605 3e3d 451a 013c a054 7ebc
00000140: 4db9 2fbd 0825 833d 98c6 33bd 9f77 dbbc
00000150: 46d0 1ebd 546a 92bb de10 b93d eba2 04bd
00000160: 1ab0 2abd e353 6f3d 4855 8b3c fda8 b53c
00000170: 1384 96bc 33c2 8b3d 0325 64bd f049 993d
00000180: 9f87 a63d 0d67 903c a431 b23b 4f98 fbbc
00000190: 7478 3cbd a4bb 50bc d832 f03c 7411 9e3c
000001a0: d4f5 01bd 7648 22bd 5113 1ebd 829e e63c
000001b0: 5928 903b 3069 d6bc 3f56 b0bc 6516 493d
000001c0: b1d8 673d 5acb 883c bd48 763d f14b 19bc
000001d0: 8eef d23c 3d91 983d afcc 763d 24f6 58bd
000001e0: 848a 10bd 1817 2fbd e074 22bd 21b5 393d
000001f0: 15f0 09bb 31af 803b 5e32 2fbd 45fa 643d

weight f4 [128, 64, 3, 3]
-0.041101605 0.013294639 -0.022134732 -0.01688423 0.006662758 0.02553503 -0.013437169 -0.010053311
-0.02748043 -0.032230444 -0.010941579 -0.01546804 0.0115275085 -0.010087549 -0.044487618 -0.0012997681
0.056002203 -0.039655115 -0.06449566 -0.068973556 0.022302115 -0.041410565 -0.0003196169 0.007216395
-0.04960447 -0.04435788 -0.0135734705 -0.0108751 -0.028903557 0.015758507 0.005293899 0.013259063
0.012790529 0.03287052 0.0029167754 -0.032298196 -0.004303274 -0.049143296 0.019877417 -0.049548715
0.018249506 0.023436224 0.023802562 0.013512924 0.057263173 0.03330097 -0.041634344 0.01266677
0.0053704204 -0.010158692 -0.018461019 0.013608001 0.07019842 0.015305212 -0.03394586 -0.005134634
-0.024216823 0.02954314 0.0038270417 0.024512552 0.0005229514 -0.025553515 0.069537565 -0.020888276
-0.01810038 0.030009454 0.024329808 -0.026292419 0.04039419 0.030131044 -0.004599819 -0.0071988683
0.012526846 0.0057956087 0.022003856 -0.007291843 0.01116965 -0.022095097 -0.030791001 0.0011010043
-0.03252948 0.033307288 0.009743942 -0.004790331 0.017889446 0.045610443 0.04380573 0.03222834
0.045371257 0.00323395 -0.033454012 0.012866747 -0.048643574 0.030252587 -0.023069164 0.01928667
-0.012329506 0.03746515 0.029052334 -0.06289578 0.017677084 0.03543117 -0.052626017 -0.054130584
0.07230222 -0.007530998 -0.029664537 -0.037517942 -0.005329869 -0.034302976 -0.0064975396 -0.011990958
0.039779108 0.0068082544 -0.015134626 0.02445712 0.009684347 -0.015809886 0.003273997 -0.0457008
-0.048263304 -0.02311476 -0.03610876 -0.018682433 -0.023787286 0.03181955 0.01349482 0.0039503025
-0.005990221 -0.014985309 -0.001486993 0.051380448 -0.0293477 0.012294348 -0.00026211 -0.034983095
0.0015134701 -0.033552356 0.02916591 0.033259705 -0.03548594 0.044448484 0.038649913 0.06334703
0.035207137 -0.014876021 -0.033129636 -0.021013394 -0.0034648173 0.021986762 -0.009516886 0.0040686135
-0.0011412706 -0.008126705 0.062023222 0.010118503 -0.02537992 0.0095187845 0.026862722 -0.032965813
0.0051870346 -0.042174853 -0.05377176 0.01556244 -0.07520455 -0.0062547647 0.02987544 -0.0006242396
0.023897061 0.016549634 0.04051714 0.03848305 0.04877891 0.009792939 -0.02100026 0.006184949
-0.03371597 -0.043755054 -0.02107382 -0.0503969 0.012987416 -0.028694116 -0.00038864906 0.016393702
-0.023925945 -0.03203095 -0.0024404072 0.01680954 0.0013051876 0.004732239 -0.04156162 0.024821179
-0.01313937 -0.00909795 -0.05748424 -0.0072257905 -0.06704066 0.003983812 0.0024856701 0.00083673076
-0.008003645 -0.03825554 0.013516098 -0.018251259 0.032974213 0.055072777 0.12987499 -0.013927797
0.028539099 -0.034015436 0.019208921 -0.037562 -0.012039149 -0.01318289 0.0057413755 -0.070613794
-0.021837076 0.029114697 0.009320346 -0.020963486 0.0013264671 -0.013948397 0.018928 -0.009492417
0.017586706 -0.048053097 0.03572646 -0.01185727 0.024183152 -0.008648846 -0.003796164 -0.056788847
0.004589938 0.05223631 -0.019979715 0.01088165 0.00445342 -0.032245457 -0.007919475 -0.0069147097
0.0057748556 0.06102934 0.06176693 0.008107992 -0.021393048 -0.014048633 0.00283844 -0.037628245
0.0011129258 -0.015718866 0.0017202568 0.012028766 0.02063568 0.009530866 -0.05746378 0.010028998
00000000: 285a 28bd c2d1 593c e653 b5bc cc50 8abc
00000010: 4453 da3b d72e d13c 9227 5cbc a4b6 24bc
00000020: a41e e1bc 1204 04bd 4f44 33bc a96d 7dbc
00000030: e0dd 3c3c 3f46 25bc a638 36bd fb5c aaba
00000040: 9162 653d 676d 22bd 4d16 84bd 0242 8dbd
00000050: edb2 b63c 209e 29bd 4192 a7b9 8277 ec3b
00000060: 0f2e 4bbd 9cb0 35bd 4363 5ebc 7a2d 32bc
00000070: 27c7 ecbc fc17 813c 7278 ad3b 8a3c 593c
00000080: 5e8f 513c 3da3 063d 5f27 3f3b 1d4b 04bd
00000090: 7b02 8dbb 7b4a 49bd f7d5 a23c 98f3 4abd
000000a0: fd7f 953c 53fd bf3c 97fd c23c 5065 5d3c
000000b0: ca8c 6a3d 9966 083d c688 2abd 4988 4f3c
000000c0: 5afa af3b a470 26bc 903b 97bc 18f4 5e3c
000000d0: 30c4 8f3d b6c2 7a3c d00a 0bbd 6f40 a8bb
000000e0: 5c62 c6bc 7504 f23c 1bcf 7a3b 8cce c83c
000000f0: ad16 093a 9b55 d1bc b669 8e3d e41d abbc
00000100: 4047 94bc 63d6 f53c 4e4f c73c 3363 d7bc
00000110: 6174 253d 61d5 f63c 14ba 96bb 7ce4 ebbb
00000120: 663d 4d3c 17e9 bd3b 6e41 b43c 6af0 eebb
00000130: e800 373c c700 b5bc 693d fcbc 934f 903a
00000140: a23d 05bd 396d 083d 0ea5 1f3c 35f8 9cbb
00000150: e38c 923c 04d2 3a3d a36d 333d dd01 043d
00000160: 36d7 393d adf0 533b 1307 09bd 0ccf 523c
00000170: 7c3e 47bd 46d4 f73c 8bfb bcbc 14ff 9d3c
00000180: b201 4abc 0f75 193d 29ff ed3c 81cf 80bd
00000190: 88cf 903c 4620 113d 618e 57bd 08b8 5dbd
000001a0: 3013 943d 97c6 f6bb 0b03 f3bc 6aac 19bd
000001b0: 2fa6 aebb 4781 0cbd 50e9 d4bb b975 44bc
000001c0: 6bef 223d c717 df3b 39f7 77bc 4c5a c83c
000001d0: 18ab 1e3c bc83 81bc 8e90 563b c330 3bbd
000001e0: beaf 45bd 2a5b bdbc c7e6 13bd e70b 99bc
000001f0: 8edd c2bc 3755 023d 6119 5d3c 8a71 813b
00000200: 9e49 c4bb f184 75bc 35e7 c2ba 4e74 523d
00000210: 966a f0bc 3c6e 493c cf6b 89b9 6f4a 0fbd
00000220: a15f c63a 326e 09bd 59ed ee3c 543b 083d
00000230: b459 11bd 9d0f 363d 5f4f 1e3d 16bc 813d
00000240: 5c35 103d 8eba 73bc f1b2 07bd 4824 acbc
00000250: fd11 63bb 951d b43c b7ec 1bbc 0152 853b
00000260: b096 95ba df25 05bc 100c 7e3d 14c8 253c
00000270: 8de9 cfbc adf4 1b3c 360f dc3c 2907 07bd
00000280: 00f8 a93b 8abf 2cbd c73f 5cbd 9bf9 7e3c
00000290: d804 9abd c5f4 ccbb 57bd f43c 03a4 23ba
000002a0: c5c3 c33c 1993 873c 4df5 253d 67a0 1d3d
000002b0: 65cc 473d 9072 203c bd08 acbc 1dab ca3b
000002c0: c219 0abd 8038 33bd 01a3 acbc fb6c 4ebd
000002d0: 2cc9 543c ec0f ebbc 98c3 cbb9 164c 863c
000002e0: 5800 c4bc e332 03bd 3def 1fbb 29b4 893c
000002f0: d412 ab3a e610 9b3b 843c 2abd c955 cb3c
00000300: 8346 57bc 910f 15bc 9874 6bbd 53c6 ecbb
00000310: 9d4c 89bd a38a 823b a0e6 223b 0d58 5b3a
00000320: b821 03bc d7b1 1cbd a072 5d3c aa83 95bc
00000330: f80f 073d fe93 613d f3fd 043e 6a31 64bc
00000340: d4ca e93c c553 0bbd 075c 9d3c 9dda 19bd
00000350: da3f 45bc 0cfd 57bc 2622 bc3b f79d 90bd
00000360: abe3 b2bc f281 ee3c 5db4 183c 9ebb abbc
00000370: dadc ad3a d187 64bc e50e 9b3c 1586 1bbc
00000380: ff11 903c 53d3 44bd e955 123d ff44 42bc
00000390: bf1b c63c e4b3 0dbc 10c9 78bb 6c9b 68bd
000003a0: 3167 963b bef5 553d 80ac a3bc f348 323c
000003b0: ffed 913b d013 04bd b0c0 01bc ca94 e2bb
000003c0: 003b bd3b e7f9 793d 52ff 7c3d 62d7 043c
000003d0: 7940 afbc 3d2c 66bc 1f05 3a3b 1320 1abd
000003e0: 98df 913a dac4 80bc 3d7a e13a 4d14 453c
000003f0: 280c a93c 5927 1c3c 245f 6bbd ab50 243c

bias f4 [64]
-0.027277762 -0.02779214 0.06940955 0.028973699 -0.051272243 -0.048072282 -0.055136193 -0.03022505
-0.0057823877 -0.04069742 -0.0066466946 0.014664295 -0.036619145 -0.054005142 -0.0012979526 0.011873163
-0.052755896 0.04575018 -0.012326017 0.07481584 -0.04439384 0.016508454 -0.035963647 0.042624258
-0.044912983 -0.043298595 -0.067349434 -0.060463525 -0.036416076 0.05356259 -0.034997042 -0.060021516
0.07523372 0.057315335 -0.07087068 -0.02907443 0.05556908 -0.0009786434 -0.04276925 -0.04289763
0.03160711 -0.046841644 0.07909703 0.028695129 0.059033375 -0.045479834 -0.005420609 0.051552523
0.06354558 -0.048332926 0.022364285 -0.028327812 0.043055024 0.072051436 -0.060047593 -0.05525303
-0.056844395 0.08183295 -0.015283717 0.07127567 0.022558765 -0.003449191 -0.022919644 0.024756035
00000000: 9d75 dfbc 58ac e3bc 9826 8e3d 405a ed3c
00000010: d802 52bd 71e7 44bd 7dd6 61bd 869a f7bc
00000020: 2f7a bdbb 56b2 26bd 84cc d9bb 8342 703c
00000030: f5fd 15bd 7f34 5dbd 1020 aaba a887 423c
00000040: 9116 58bd 8a64 3b3d 10f3 49bc 0c39 993d
00000050: 51d6 35bd bd3c 873c 9e4e 13bd c696 2e3d
00000060: adf6 37bd de59 31bd 80ee 89bd 9aa8 77bd
00000070: 0629 15bd 7264 5b3d 0f59 0fbd 1fd9 75bd
00000080: 2314 9a3d 7cc3 6a3d a624 91bd 802d eebc
00000090: 679c 633d d345 80ba cf2e 2fbd 6db5 2fbd
000000a0: 7576 013d 06dd 3fbd a0fd a13d 0c12 eb3c
000000b0: fbcc 713d 1049 3abd 5d9f b1bb bd28 533d
000000c0: 2f24 823d bff8 45bd 4e35 b73c ba0f e8bc
000000d0: 775a 303d b48f 933d 77f4 75bd 0051 62bd
000000e0: abd5 68bd 0998 a73d 8e68 7abc faf8 913d
000000f0: 29cd b83c d30b 62bb fac1 bbbc 2bcd ca3c

weight f4 [64, 32, 3, 3]
0.03244663 -0.0050357715 -0.025703149 -0.026996268 -0.015711952 0.062855266 -0.031311966 0.017739117
-0.0003576386 0.04665316 0.022642652 0.027169125 0.033538144 0.078200154 0.080921024 0.024986727
0.102055855 0.04868957 -0.014962915 0.070273176 0.053398848 0.012074699 0.06306253 0.06748888
0.042638805 0.072128154 0.0970637 -0.037525434 -0.04246981 0.0058528786 -0.0056043696 0.04195447
-0.07794804 0.0127748605 0.0127420565 0.041577186 -0.063593216 0.028239956 0.04487963 -0.020002803
0.06682389 0.08024816 0.03249515 0.044305783 0.0028631377 0.011337135 -0.016221374 0.031084323
0.03709623 0.08506536 0.10469704 0.042681936 0.017790392 0.09578808 0.008814814 0.018917264
0.0060966597 -0.09411721 -0.010886355 0.008713796 -0.011262646 0.0018309972 0.04868613 0.030272214
0.005699294 0.088742055 0.017649185 -0.048115015 0.058461793 0.03852029 0.016487706 0.044326596
0.048904456 0.057656053 -0.011830409 0.028548654 0.049328234 -0.043715015 0.038571548 -0.00094088225
0.057272024 0.029813925 0.04018861 0.068327375 -0.00059583905 0.07915316 0.032107394 -0.017505942
0.12486286 0.042919785 -0.040098757 0.039457668 0.0010337688 0.0036876108 -0.040822547 -0.05774833
0.057150107 -0.05709184 0.04477028 0.051726185 -0.040570483 -0.023835868 0.029085545 -0.039363626
-0.061173 0.049338806 0.028062182 0.00749083 -0.02693544 0.009467456 0.042408817 0.027768694
0.031567458 -0.020246176 -0.0011496592 -0.05377143 0.04477083 -0.049703646 -0.022109108 0.064937696
0.0026775377 0.06691269 0.025241138 0.01255497 0.025663253 -0.030745404 0.0018921907 0.057109192
0.055959985 -0.01397946 -0.051630028 0.062382493 -0.058926225 0.026462123 -0.06305708 -0.009166722
-0.025675308 -0.01029738 0.045714352 -0.071306646 0.073671795 0.011399798 -0.0108214505 -0.04451176
0.030016862 0.013886126 0.005525074 0.0077720275 -0.055638682 -0.058591627 -0.002173291 -0.050548315
0.025969917 0.062464435 -0.061549656 -0.0042978236 -0.038280286 -0.017896164 0.07690146 0.032874983
-0.0023991945 0.0145544205 -0.04253006 0.010194816 0.002650868 -0.018496262 0.02463706 0.05731505
0.008213733 -0.023683181 0.044793982 0.019479359 0.006289878 -0.0009716494 0.05149531 -0.05379912
-0.02234576 0.026014555 -0.0135292085 0.026167603 0.032582935 0.03374463 0.013745154 0.052145302
0.02290201 0.04442873 0.008232713 -0.0544942 -0.07335785 -0.036105376 0.029180514 0.069993526
-0.011599729 0.09641706 0.026538903 0.049670357 0.061381504 0.013853754 0.03670175 -0.02612141
-0.0423658 -0.021191321 -0.046961818 0.046962585 0.005616407 -0.010227373 0.058745436 0.035691373
0.0007866376 -0.012491317 -0.00020748281 0.020465285 0.008613763 0.00094255526 0.035611656 0.034459595
0.019847786 0.0014436811 0.041359633 0.046495143 0.09540809 0.03592842 -0.010019778 -0.024514135
-0.010840392 -0.05014364 0.0029981157 0.016375177 0.036773637 0.021331469 -0.033124812 -0.03307775
-0.03625149 0.023779554 -0.060412496 0.050823554 0.04975 -0.028855355 0.025850078 0.038752764
-0.061623126 -0.02018024 0.07440562 0.007951201 0.017382042 0.0065671527 0.009942118 0.07188349
-0.029689271 -0.031287614 -0.0037252128 0.04412153 -0.011317836 0.039281193 0.039346993 0.017970728
00000000: c2e6 043d 1d03 a5bb 698f d2bc 4727 ddbc
00000010: 5ab6 80bc 43ba 803d fa40 00bd a051 913c
00000020: 7181 bbb9 6217 3f3d 157d b93c c991 de3c
00000030: 4b5f 093d 6727 a03d ecb9 a53d f7b0 cc3c
00000040: a902 d13d b76e 473d 0427 75bc 62eb 8f3d
00000050: c0b8 5a3d f5d4 453c ed26 813d 9c37 8a3d
00000060: 07a6 2e3d edb7 933d 55c9 c63d 45b4 19bd
00000070: d3f4 2dbd 81c9 bf3b dca4 b7bb 73d8 2b3d
00000080: 39a3 9fbd a64d 513c 0fc4 503c d74c 2a3d
00000090: 293d 82bd 7b57 e73c b4d3 373d ebdc a3bc
000000a0: f7da 883d 2659 a43d a219 053d fb79 353d
000000b0: 7ba3 3b3b 64bf 393c b0e2 84bc 8da4 fe3c
000000c0: 37f2 173d bf36 ae3d 676b d63d 41d3 2e3d
000000d0: 28bd 913c 8a2c c43d 026c 103c 61f8 9a3c
000000e0: 7dc6 c73b 86c0 c0bd af5c 32bc 4fc4 0e3c
000000f0: f686 38bc 12fe ef3a 1c6b 473d 6ffd f73c
00000100: 25c1 ba3b 65be b53d 0695 903c 4014 45bd
00000110: a275 6f3d 74c7 1d3d 3a11 873c ce8f 353d
00000120: 0a50 483d c128 6c3d 55d4 41bc dede e93c
00000130: 670c 4a3d 840e 33bd 33fd 1d3d 8aa5 76ba
00000140: 1296 6a3d 553c f43c d09c 243d 39ef 8b3d
00000150: 1532 1cba 0d1b a23d 0b83 033d 9f68 8fbc
00000160: 19b8 ff3d a8cc 2f3d 983e 24bd 5d9e 213d
00000170: 867f 873a d8ab 713b 8b35 27bd 8389 6cbd
00000180: 3b16 6a3d 22d9 69bd 0b61 373d d6de 533d
00000190: 3c2d 26bd 7043 c3bc cf44 ee3c c13b 21bd
000001a0: 8a90 7abd 7d17 4a3d a9e2 e53c a375 f53b
000001b0: b6a7 dcbc 631d 1b3c deb4 2d3d 2c7b e33c
000001c0: e14c 013d 4fdb a5bc 29b0 96ba 6e3f 5cbd
000001d0: 9e61 373d 0d96 4bbd 291e b5bc 0efe 843d
000001e0: a179 2f3b 8509 893d 81c6 ce3c 5cb3 4d3c
000001f0: be3b d23c c9dd fbbc 6203 f83a 54eb 693d
00000200: 4c36 653d 1b0a 65bc 027a 53bd c984 7f3d
00000210: a05c 71bd 18c7 d83c 1224 81bd 0530 16bc
00000220: 0655 d2bc 58b6 28bc f93e 3b3d 3809 92bd
00000230: 3de1 963d 38c6 3a3c 744c 31bc f751 36bd
00000240: ece5 f53c a282 633c ae0b b53b 7eac fe3b
00000250: 63e5 63bd c6fd 6fbd c66d 0ebb c00b 4fbd
00000260: ddbe d43c b5da 7f3d 7e1b 7cbd c2d4 8cbb
00000270: cacb 1cbd fa9a 92bc 837e 9d3d eba7 063d
00000280: ce3b 1dbb aa75 6e3c 0034 2ebd 2808 273c
00000290: 2fba 2d3b 7985 97bc a9d3 c93c 30c3 6a3d
000002a0: e592 063c 3b03 c2bc e579 373d 2d93 9f3c
000002b0: 521b ce3b 4ab6 7eba bfec 523d 775c 5cbd
000002c0: 750e b7bc 7a1c d53c 9da9 5dbc 715d d63c
000002d0: af75 053d cf37 0a3d 5b33 613c 5096 553d
000002e0: ff9c bb3c e6fa 353d 80e2 063c 4f35 5fbd
000002f0: a43c 96bd 3be3 13bd f90b ef3c c458 8f3d
00000300: ca0c 3ebc 4f76 c53d 1d68 d93c 2573 4b3d
00000310: 2c6b 7b3d dbfa 623c 9354 163d 91fc d5bc
00000320: c387 2dbd 6c99 adbc 095b 40bd d75b 403d
00000330: d609 b83b b690 27bc 0e9f 703d 1e31 123d
00000340: 5b36 4e3a 61a8 4cbc be8f 59b9 d0a6 a73c
00000350: be20 0d3c d015 773a 87dd 113d 8125 0d3d
00000360: d397 a23c e639 bd3a b868 293d b171 3e3d
00000370: 5165 c33d ae29 133d ff29 24bc ded1 c8bc
00000380: e69b 31bc 6b63 4dbd 097c 443b 3c25 863c
00000390: f49f 163d 55bf ae3c e2ad 07bd 897c 07bd
000003a0: 717c 14bd 57cd c23c 1873 77bd 5c2c 503d
000003b0: a8c6 4b3d 1162 ecbc 8bc3 d33c 38bb 1e3d
000003c0: 8868 7cbd 0851 a5bc f961 983d c145 023c
000003d0: c964 8e3c 4531 d73b 44e4 223c a737 933d
000003e0: ea36 f3bc 7127 00bd b322 74bb c7b8 343d
000003f0: 726e 39bc 51e5 203d 502a 213d 5937 933c

bias f4 [32]
0.10637344 0.014846628 -0.039603822 0.010490014 0.0071416544 -0.027115688 0.034559004 -0.054989684
-0.048882157 0.005034318 -0.023480712 0.02155316 -0.039111514 0.025796916 0.044556662 -0.070821375
-0.014879044 -0.026630333 0.08494487 -0.050184693 -0.03704336 0.043969195 -0.0015914837 0.104014926
0.0453763 0.01158787 0.04132487 0.03331426 -0.0051411297 -0.07441172 -0.017374335 -0.03911341
00000000: 51da d93d 453f 733c 9e37 22bd 4fde 2b3c
00000010: 8a04 ea3b b821 debc be8d 0d3d dd3c 61bd
00000020: a838 48bd ecf6 a43b 9f5a c0bc 4190 b03c
00000030: 6533 20bd 0e54 d33c 0c81 363d cc0a 91bd
00000040: 3cc7 73bc db27 dabc 93f7 ad3d 778e 4dbd
00000050: c7ba 17bd 0b19 343d 5599 d0ba c705 d53d
00000060: 80dc 393d 0ddb 3d3c 4444 293d 8974 083d
00000070: ec76 a8bb 2c65 98bd 9f54 8ebc 6235 20bd

weight f4 [32, 3, 3, 3]
-0.07593442 -0.054971363 -0.027079187 -0.04141693 -0.06867598 -0.21237189 0.08542098 0.028838927
-0.12911028 -0.18182704 -0.094140574 -0.10025926 -0.122779794 -0.26711845 -0.13010444 -0.016890423
-0.21012175 -0.06799129 -0.00048447453 0.091962576 -0.18204342 -0.08539477 0.0088250665 0.041053806
0.100678146 -0.015741557 0.06484759 0.12605686 -0.074669145 -0.12723282 -0.09703875 0.055601764
0.0006548084 0.02274331 0.1495107 -0.014574292 0.031222781 -0.07001057 0.09100897 0.07622019
-0.10975315 -0.022427835 0.030847063 -0.031593237 -0.17537662 0.099772476 -0.1024798 -0.10866469
-0.16773774 -0.23950046 -0.20471436 0.057749894 -0.21777685 0.03493774 0.11264961 0.124952644
0.013124953 0.16213852 0.21432997 0.13356282 0.038378697 0.2419521 0.107930414 0.017087871
-0.12075297 0.029902117 -0.06967224 0.049706113 0.14076087 0.18341734 -0.11298298 0.13577044
0.024529396 0.1837414 -0.19593325 -0.028553722 0.058021907 0.18174401 0.009844071 0.11978025
0.017147202 0.20875052 0.03059146 -0.117132716 -0.07467134 -0.12191421 0.1579001 0.081779875
0.026364576 -0.039960876 -0.09209541 -0.17066188 0.1490229 0.009231398 0.11009065 -0.13752751
-0.027438408 0.050497666 0.017530113 0.02250847 0.07794064 -0.020268226 0.118407324 0.021828257
0.067936555 -0.11882095 0.03371835 0.003392532 -0.009436888 -0.17583717 0.027489726 0.10669256
-0.11461415 0.06886285 -0.17191033 0.030893844 -0.08776579 0.13339566 0.1395763 0.12752856
-0.09128356 -0.0832151 -0.1554688 0.02790587 0.07951167 0.124542676 -0.016587567 0.13696149
0.090659335 0.02295534 -0.19758713 0.002414683 0.05436139 -0.10525031 -0.1554133 -0.081388965
0.117521614 -0.048672874 0.16937722 0.041401803 -0.0649204 0.035512455 0.08093613 0.03511279
0.04564841 -0.036459375 -0.013305853 -0.10286182 0.03161919 -0.045258272 -0.124753036 -0.11959407
-0.070502885 -0.019700779 -0.10593374 -0.2065523 -0.0938585 -0.09419761 0.051189 0.054696124
-0.13584092 -0.1931229 0.007889182 -0.12616496 -0.16048627 -0.12905653 -0.0951128 -0.037893362
-0.10189463 -0.010562867 0.07638233 0.008239606 0.037571944 0.111164145 -0.06997663 0.02219926
0.08209546 0.13862936 0.2596951 -0.06578558 -0.057971727 -0.040987268 0.046649028 0.17720282
0.02061812 0.08882521 0.17345765 0.16883396 0.157815 -0.04693456 0.21781817 -0.103630535
0.16016753 0.11585746 0.11622197 0.15607002 -0.063960865 0.12877189 -0.08286365 -0.022436265
0.19739574 0.010415988 0.125631 -0.14386678 -0.13244979 -0.09768561 0.015532184 -0.16883616
0.14623119 0.06040827 -0.078052305 0.12120386 0.036751207 0.0041175084 0.10382421 0.16831766
0.060041495 0.042953633 0.022999572 -0.06780414 0.054607745 0.030120246 0.039840117 0.09757494
0.17695177 0.08610018 0.07816638 0.06457663 0.19174701 -0.053120147 0.19569817 0.1499065
0.0892147 -0.13340941 0.07457868 0.005835398 -0.08058009 0.13886166 -0.066197746 -0.13614413
0.12913974 0.03938684 0.0337677 0.17695448 0.21889815 0.1584546 0.03665865 0.22307102
-0.119246386 -0.07358739 0.021261578 0.15320167 0.05755221 0.16702288 -0.13973439 -0.12457614
00000000: 8183 9bbd a729 61bd 2cd5 ddbc cca4 29bd
00000010: fea5 8cbd 0478 59be 32f1 ae3d 9d3f ec3c
00000020: 7c35 04be de30 3abe c6cc c0bd ba54 cdbd
00000030: f973 fbbd c0c3 88be 193a 05be c95d 8abc
00000040: 282a 57be 043f 8bbd 1201 feb9 e056 bc3d
00000050: 9769 3abe 74e3 aebd 0397 103c 0928 283d
00000060: 5830 ce3d 70f4 80bc d0ce 843d 0d15 013e
00000070: 23ec 98bd 5249 02be 41bc c6bd adbe 633d
00000080: 73a7 2b3a 2e50 ba3c 5519 193e 03c9 6ebc
00000090: ebc6 ff3c b461 8fbd e962 ba3d 5519 9c3d
000000a0: 42c6 e0bd 94ba b7bc fbb2 fc3c e967 01bd
000000b0: ee95 33be 8355 cc3d eee0 d1bd 988b debd
000000c0: 71c3 2bbe 9c3f 75be a4a0 51be 278b 6c3d
000000d0: e500 5fbe e01a 0f3d d7b4 e63d 2ce7 ff3d
000000e0: 0b0a 573c a407 263e 5179 5b3e b1c4 083e
000000f0: fb32 1d3d 4bc2 773e 9f0a dd3d ddfb 8b3c
00000100: 554d f7bd 49f5 f43c 52b0 8ebd a398 4b3d
00000110: 9e23 103e c1d1 3b3e 9f63 e7bd 6807 0b3e
00000120: dff1 c83c b526 3c3e baa2 48be 7fe9 e9bc
00000130: 61a8 6d3d 1a1b 3a3e 0749 213c 594f f53d
00000140: 4a78 8c3c b2c2 553e f19a fa3c 47e3 efbd
00000150: 4aed 98bd 28ae f9bd 90b0 213e 357c a73d
00000160: 86fa d73c 04ae 23bd 859c bcbd fdc1 2ebe
00000170: 7699 183e 4a3f 173c 3577 e13d 03d4 0cbe
00000180: 83c6 e0bc a4d6 4e3d 509b 8f3c af63 b83c
00000190: 589f 9f3d 8d09 a6bc 8a7f f23d 2cd1 b23c
000001a0: 5222 8b3d 6658 f3bd 411c 0a3d 3e55 5e3b
000001b0: 2d9d 1abc a90e 34be 2232 e13c a181 da3d
000001c0: d3ba eabd f707 8d3d 4309 30be 1615 fd3c
000001d0: 8dbe b3bd df98 083e 17ed 0e3e d996 023e
000001e0: e0f2 babd ae6c aabd 3733 1fbe da9a e43c
000001f0: 04d7 a23d 3b10 ff3d a6e2 87bc a23f 0c3e
00000200: 9aab b93d d60c bc3c 4854 4abe a93f 1e3b
00000210: 0daa 5e3d 798d d7bd aa24 1fbe 42af a6bd
00000220: 2caf f03d 355d 47bd 3971 2d3e f094 293d
00000230: fdf4 84bd 8275 113d d7c1 a53d 6ed2 0f3d
00000240: d4f9 3a3d 6d56 15bd cb00 5abc 38a9 d2bd
00000250: 2083 013d bd60 39bd 857e ffbd bced f4bd
00000260: d163 90bd 8763 a1bc caf3 d8bd 7282 53be
00000270: e338 c0bd adea c0bd 8fab 513d 0b09 603d
00000280: e219 0bbe 02c2 45be a141 013c 6331 01be
00000290: 8356 24be 6527 04be 80ca c2bd 1236 1bbd
000002a0: 22ae d0bd e00f 2dbc 576e 9c3d 6aff 063c
000002b0: 0ae5 193d 07aa e33d e84f 8fbd 39db b53c
000002c0: aa21 a83d dbf4 0d3e c2f6 843e 97ba 86bd
000002d0: c373 6dbd 44e2 27bd 0d13 3f3d a874 353e
000002e0: 55e7 a83c fee9 b53d e29e 313e cfe2 2c3e
000002f0: 419a 213e 743e 40bd ba0b 5f3e 3f3c d4bd
00000300: f502 243e ad46 ed3d c905 ee3d d2d0 1f3e
00000310: eafd 82bd c7dc 033e 6bb4 a9bd 42cc b7bc
00000320: 1c22 4a3e d2a7 2a3c 6aa5 003e d051 13be
00000330: eba0 07be 650f c8bd b47a 7e3c 63e3 2cbe
00000340: a1bd 153e aa6e 773d e3d9 9fbd bb39 f83d
00000350: 6f88 163d 2aec 863b caa1 d43d 775b 2c3e
00000360: 12ee 753d 26f0 2f3d 9969 bc3c e6dc 8abd
00000370: 5fac 5f3d bcbe f63c 642f 233d 5fd5 c73d
00000380: d832 353e 4b55 b03d b215 a03d c140 843d
00000390: 5459 443e 8394 59bd 1a65 483e 1781 193e
000003a0: 32b6 b63d 7a9c 08be b5bc 983d de36 bf3b
000003b0: 2d07 a5bd c031 0e3e af92 87bd 5e69 0bbe
000003c0: 353d 043e 1854 213d 0050 0a3d 8e33 353e
000003d0: d626 603e ec41 223e 6127 163d bb6c 643e
000003e0: 7337 f4bd fcb4 96bd c32c ae3c e6e0 1c3e
000003f0: debb 6b3d 0c08 2b3e 8816 0fbe c621 ffbd

bias f4 [3]
-0.030455513 -0.07524296 0.101780586
00000000: d77d f9bc fb18 9abd 5772 d03d
