app/src/main/ml/voice_mood_model.tflite (tflite, 179796 bytes, 6 tensors)

arith.constant f4 [8, 128]
00000000: af9e b63c 4e09 e1bd e613 84bd a45d 39bd
00000010: b12b 8f3d feea 343e f47d 6dbd 6873 8bbb
00000020: cdc0 cbbd f577 023d 867b 093e ccc2 87bd
00000030: 293a 18be e08e 323d 1419 cbbc 99ed f83d
00000040: 1a4a 6bbd 05a8 783d 6bc6 3fbe 1471 94bd
00000050: e20a 583d 74f7 46be bfe2 03bd cb43 36be
00000060: 508d 383e 49f4 b33d ee6e 783d 81d8 3abe
00000070: 3312 93bc ee7f 8b3d 39d0 f33c 5bd3 3ebe
00000080: 334b 363e 75ba c8bd 7b0a 173e a112 153d
00000090: e801 bfbd b18d 2bbd b2dd e4bd 701a dfbd
000000a0: b46b 0d3e be22 56be 069c dd3d e776 d63d
000000b0: 34ea ae3d 27eb a53d 37c8 0c3d 1240 ea3c
000000c0: 38d8 bb3d de3c 5b3d ad1d 853c 9967 3dbd
000000d0: 1b19 bcbd 67de 073e 8c57 dfbd 57fa e0bd
000000e0: 65f3 953d cbb5 f5bd 37a0 9aba 1acb 25be
000000f0: a4c3 95bd 9912 163e 2aca 033d d0c2 2abb
00000100: 709c 9abd ecc1 a03d 49cb 43be 2c65 46be
00000110: 49d6 b8bc 9648 42be db0a e33c cb24 dbbd
00000120: 0163 c6bd 2bdd b13d 9f87 a13d dcd5 293e
00000130: 279a 2a3c c78b a43d 7af4 f33d 8893 1c3d
00000140: d39d c7bd e8e0 24bd 79f3 3d3e 02e5 993d
00000150: 780f fabd c803 2abe dbae d93d dbcb b2bd
00000160: 2f22 26bd aea9 26be 0ada 0f3e deb0 8fbc
00000170: c920 25be c68d bd3d 8e6f 003c b71f c53d
00000180: 50e5 dd3d f243 cbbd 0591 9fbc 01f6 0a3e
00000190: 1f60 c2bd e587 e13d d8db 06be 6b0b 13be
000001a0: e2d3 143e 62c5 983d 8f3b 453e 4e59 3a3e
000001b0: 8863 743c e88d c83d 5631 363e 4271 033e
000001c0: 9607 13be 1b46 28bd 842e acbd edf9 0dbe
000001d0: 4d51 91bd f532 38be 7864 0d3e 19ca 823d
000001e0: 5835 27bc 3c07 ea3d 6da7 9fbd 77ce 363d
000001f0: 720d 08be 0ab4 8abc aa9f 0a3e 4dab 5dbb
00000200: f271 5dbd d309 5a3c e0e3 39be 93e9 bd3c
00000210: 7fce cfbd 1ced fcbd 8643 b3bd 54d5 d63d
00000220: e516 243e 3217 063d 903c 083e 3da1 fd3d
00000230: 1fd5 d5bd c10e 6bbc b2e9 863d 4635 12be
00000240: 4c67 e03c 8b1d 2abe ddb8 2bbe adba 643c
00000250: 3adb df3c dec6 393e e1d6 8cbd c804 e83d
00000260: ac85 2b3e c6e9 f9bd 4417 09be 7de3 0d3d
00000270: d772 a1bd 599f 743c 8d5c 103e 4f7d bd3d
00000280: 478f c5bd 298c 1cbb e87c 59bd cd00 c5bd
00000290: ad39 d8bd fc6d 2f3d 8304 3cbd fdf3 9cbd
000002a0: 9c97 333d 85c7 a7bd 93cc 433d f635 143e
000002b0: c26b 1fbe 5b30 cfbd 8e91 11bc 72e1 3b3e
000002c0: 2af5 9abd f00d 9d3c a15b dcbd 8939 163a
000002d0: a528 083e 37ff 45be 2648 913d 896c be3d
000002e0: ffc9 823c a539 b43d 22f6 97bd de87 9e3d
000002f0: d7cb e23d 7cf4 17bd 5204 d6bd 34e6 f5bd
00000300: 39bf 883d 7c14 c03d 6abc d23d 7429 89bd
00000310: b832 b63c 4596 c53d ea42 2abd 6545 593c
00000320: 0a6e e23d 6714 353d d67e c1bb 9d07 a3bd
00000330: af30 95bd cb4b 813b ce9c 303d 1f3d 2ebd
00000340: b6d7 f9bd 421c c43d d7d5 563c 4933 53bd
00000350: b0af d63c 3023 603d 5053 58bc 1d35 aebd
00000360: 1c89 4ebd 62fc 32be b348 10bd 77fe 413e
00000370: 3a31 143e ff65 16be 1c60 6abc 99fd 393e
00000380: c71d 0f3e ef1a d6bd c533 163e 62d8 bcbd
00000390: 860d b03d 2a76 42be 2511 f5bd 895a 3b3e
000003a0: ff00 de3d c87d 18be 9dbc 363e ea49 4e3d
000003b0: 285f 4ebe efe8 4cbd 8b93 1c3e 77e4 c63d
000003c0: c629 563b e110 96bd d66f a83d 7e2e 2abd
000003d0: 16db a33d bbc9 253d eb86 153c b00f 143e
000003e0: fa22 29be 275b 36be 00af 3e3e 6e92 1f3e
000003f0: fe53 91bc 24e3 123d 2f45 773d d1f4 fdbc
0.022292463 -0.10988103 -0.06449108 -0.04525532 0.06990755 0.17667767 -0.057981446 -0.004255701
-0.09948883 0.03185268 0.13426027 -0.066289514 -0.14865936 0.043593287 -0.024792232 0.12154693
-0.057443716 0.06070711 -0.18728034 -0.072481304 0.052744754 -0.19430333 -0.032198664 -0.17799298
0.18022656 0.08786828 0.060652666 -0.18246652 -0.017953014 0.0681151 0.029762374 -0.18635313
0.17802124 -0.09801189 0.14750092 0.03639472 -0.093265355 -0.041883174 -0.111750975 -0.108937144
0.13810617 -0.2091169 0.10820775 0.104718976 0.085407645 0.081014924 0.034370627 0.028595004
0.091721 0.053524844 0.016249502 -0.046241377 -0.09184476 0.13268434 -0.1090537 -0.109852485
0.073218144 -0.11997565 -0.0011797015 -0.16190758 -0.07312706 0.14655532 0.03217522 -0.0026056059
-0.07549369 0.07849488 -0.19120516 -0.19374532 -0.022563117 -0.18973002 0.027715137 -0.10700377
-0.09686852 0.086847626 0.07887196 0.16585487 0.010412729 0.08034473 0.119118646 0.038226634
-0.097468995 -0.04025355 0.18549909 0.07514383 -0.12209982 -0.16603005 0.10629054 -0.087302886
-0.040559944 -0.16275665 0.14048019 -0.017540392 -0.16125788 0.09255557 0.007839097 0.0962519
0.108347535 -0.09925069 -0.01947833 0.13570406 -0.0949099 0.11012248 -0.13169801 -0.14359824
0.14533952 0.07459523 0.19261001 0.1819813 0.014916308 0.097926915 0.17792258 0.12836173
-0.14358363 -0.041082483 -0.0840731 -0.1386487 -0.07095585 -0.17988189 0.13807857 0.06386203
-0.010205589 0.11427161 -0.07795606 0.044630494 -0.13286379 -0.016931552 0.1353747 -0.0033824027
-0.054063745 0.013308006 -0.18153334 0.023182666 -0.10146808 -0.123499125 -0.087531134 0.10489908
0.16024359 0.032736965 0.13304353 0.123842694 -0.1044104 -0.014346779 0.065875426 -0.14278135
0.027393006 -0.16612832 -0.16769738 0.013960523 0.027326215 0.18142268 -0.068769224 0.11329037
0.1675021 -0.12202792 -0.13387781 0.034640778 -0.07883232 0.01493057 0.14097805 0.09252416
-0.096464686 -0.0023887253 -0.053097636 -0.09619293 -0.10557876 0.0428295 -0.04590274 -0.076637246
0.043845758 -0.08192352 0.04780252 0.1447371 -0.1556845 -0.10116645 -0.008884801 0.1834772
-0.075662926 0.019171685 -0.10759664 0.00057306193 0.13296755 -0.19335638 0.07093839 0.09298045
0.01596546 0.08800057 -0.07419993 0.07740758 0.110740356 -0.037098393 -0.10450043 -0.120067984
0.06677098 0.09378907 0.102898434 -0.0669736 0.022240981 0.09647802 -0.04156772 0.013261174
0.110561445 0.04420891 -0.0059050126 -0.079604365 -0.07284676 0.003945803 0.04311829 -0.04253876
-0.12199347 0.09575702 0.013112507 -0.05156258 0.026206821 0.054721057 -0.013203457 -0.08506224
-0.050423726 -0.17479089 -0.03522558 0.18944727 0.14471903 -0.14687346 -0.014305141 0.18163146
0.13976203 -0.10454356 0.14668186 -0.09220959 0.085963294 -0.18990389 -0.11966161 0.18296255
0.10840034 -0.14891732 0.17845388 0.05036346 -0.20153487 -0.05002683 0.15290658 0.09711545
0.0032678708 -0.07327438 0.08224456 -0.041548245 0.08000772 0.04047559 0.009126405 0.1445911
-0.16517249 -0.1780821 0.18621445 0.15583202 -0.017740246 0.03586115 0.060368713 -0.031000527

arith.constant1 f4 [128, 256]
00000000: f601 bbbd 6059 22bc 400d 253d 740a 8abd
00000010: db98 aabc e029 5ebd 6866 2abd a0b2 213d
00000020: 50d6 303d 3c1c 8bbd 70b8 583c b07e e63d
00000030: 44f6 fbbc 0c7f c0bd 0c9d c9bd 13ef bfbd
00000040: d0c8 8b3c 3ca2 0cbd c2e0 8fbd c02d f43d
00000050: 80a5 5d3c 82ca 243d 1499 98bd 355a b23d
00000060: 683e 353d d378 1ebd 0e46 02be fc25 fcbc
00000070: f29f a6bc 7800 dfbd c0dd 46bd 3070 a63d
00000080: 20e9 2e3c ac37 dc3d df87 47bd f853 ccbd
00000090: fbd5 ce3c 54c3 e53d 287b b7bd 98f8 09bd
000000a0: bbd8 313d 805e 68bd 7cde e7bd 78ba 19bd
000000b0: 88eb f9bd 9a01 bb3d 169e 373d 88bc 6dbd
000000c0: b9f8 a6bd 2f6f b03d 4007 a5bb a012 363d
000000d0: 9800 34bd c639 573d a89f 9d3d 4781 753c
000000e0: ac5f 88bd 1b85 b13d 3099 113d f3e0 073c
000000f0: b654 563d 82f2 873d 4874 5e3b 6c62 05be
00000100: e65b 68bd 9c80 803c acf9 f4bd 80a0 fe3b
00000110: e0c6 d73c 700d 8fbd a58c bfbd 8a9d babd
00000120: 8b96 933c 9cff adbd 6ce4 e8bd 9484 943d
00000130: aea9 cdbc 00a7 10bc c565 b0bd 004a 03ba
00000140: 9930 debd f1a9 f0bd d07b b03c 5052 b43c
00000150: 3a6b 3cbc a02f 503c a70b 9ebd 4455 a6bd
00000160: ac6b a7bd 06b0 ce3d 2c0a acbd ef57 1e3d
00000170: 4295 15be c322 4b3d 57c8 8bbd 6324 b239
00000180: 44ff 983d 9692 bdbd 9899 de3d 656d 873d
00000190: 587a 62bd 3c7a e9bd f626 94bc f9a4 a7bd
000001a0: 364e 07bd eb98 893d 0071 333d 7492 9bbd
000001b0: 5d39 bb3b 402f f03b a82a aabd e39a 0f3d
000001c0: 45b1 f5bd acaf 90bd bc39 ed3d 98ed 56bd
000001d0: c0e1 e13b a3a5 0bbe a49e d7bd 6100 af3c
000001e0: b045 b13c 8482 d2bd f07a 8bbd f4e7 c9bd
000001f0: f02f 02be 538e 42bd fc65 b53b 60b4 aebd
00000200: 4e29 be3c 5e0e d63c 9818 b8bd aed6 05bc
00000210: 9f93 783d 48d4 993d 747d 833d 40b1 cebc
00000220: 5b80 d9bc e803 b23d 94a7 b53d 5dfb ba3d
00000230: 8012 fa3c 0079 f03c 2045 953d 1093 bbbd
00000240: 70e2 053d 0f98 fcbd 2cc3 9c3d 067d 0fbe
00000250: efcd f93a 10af d93d 8862 dabd c22b 01be
00000260: 92b0 9a3d 30c0 aa3d b849 cc3d 8f8b d6bc
00000270: 2bbc d1bd e256 3c3d d626 c2bd 408f 283c
00000280: 6e4d 853d 91e7 dcbd c42e 923d dd93 cc3d
00000290: 812d 543d 11e8 943c 49f9 433d 0d0f 7abc
000002a0: 8151 88bd 50bc 0a3d 4044 f4bd 301b 66bd
000002b0: 10b6 c53c 00a4 f5b9 ea90 d4bd 403b e1bb
000002c0: 0030 b6b8 c4b5 edbd f8c2 cfbd e5ba fabd
000002d0: 9a19 9d3d f072 523d 0008 53bd 2210 923d
000002e0: 767b 143c 8843 a13d daae 0dbe 95e3 f1bd
000002f0: 588c 5fbd 2051 53bc a8f2 62bd 009c d83c
00000300: 80be f7bc e456 ccbd b8e7 46bd d037 8bbc
00000310: 6ba6 13bd 00a6 763c ec12 f63c 741e d2bd
00000320: c135 a1bc f77b 4bbd 6c7d e03d 10db bbbc
00000330: cb2f d9bc 9446 a6bd 70e7 a2bc 2db8 b53d
00000340: e66d 893d 848d 7d3c fc1b c83d 6d6f 04be
00000350: 065f 263c 7f80 ee3c a3d1 13bc ef13 e6bd
00000360: d214 56bd 24cc cf3d 3a8c 153d 3ef8 d6bd
00000370: c8f1 783d 6046 9abc ec87 a63d d007 e9bc
00000380: 789d 88bd 1124 79bd fcfe ae3d ae12 5dbd
00000390: 7478 b33d c057 bb3d c821 03be 446e bebd
000003a0: 59ab 5c3d e0e0 303c ec02 f3bd a70d 0c3d
000003b0: 37e9 8a3c 881f 0f3d a0d1 8fbc baa5 ce3d
000003c0: 0646 a93d f075 5fbd 76b4 65bc 973f 113c
000003d0: f05a babc d043 dcbd 801b aa3b 0030 1b3c
000003e0: 8096 fcbb 7b2d 933d eb95 f23c 1377 403d
000003f0: 104d a03c 4696 7fbd 1e6c 953c b0bc c73d
-0.091312334 -0.009909004 0.04029584 -0.06740275 -0.02082484 -0.054239154 -0.04160157 0.03947699
0.043173134 -0.06792495 0.013227567 0.112546325 -0.030757077 -0.09399232 -0.098444074 -0.09371772
0.017063528 -0.034334406 -0.07025291 0.119227886 0.013528228 0.04023219 -0.07451072 0.08708612
0.04424897 -0.038689446 -0.12722036 -0.030779831 -0.02033994 -0.10888761 -0.04855132 0.08126867
0.0106756985 0.10752806 -0.04871356 -0.09976953 0.025248518 0.112188965 -0.08959037 -0.033684343
0.04341958 -0.056730747 -0.113217324 -0.037531346 -0.12203127 0.09131165 0.044828497 -0.058041126
-0.08152909 0.086149566 -0.0050362647 0.044451356 -0.04394588 0.05254533 0.07696468 0.014984435
-0.06658873 0.08667966 0.03554648 0.008293378 0.05232688 0.066380516 0.003394382 -0.13025826
-0.056728266 0.015686326 -0.11961684 0.007770598 0.026339948 -0.06984985 -0.09352998 -0.091120794
0.01801612 -0.08496019 -0.11371693 0.0725185 -0.025105324 -0.008828878 -0.08613161 -0.000500828
-0.10849113 -0.11751164 0.021543413 0.022011906 -0.011500174 0.012706667 -0.07717066 -0.08121732
-0.08174834 0.100921676 -0.08400378 0.03865808 -0.14607719 0.0495937 -0.06825321 0.00033977916
0.07470563 -0.09256475 0.108691394 0.06612662 -0.055292457 -0.114002675 -0.018084984 -0.08185763
-0.033033572 0.0671862 0.043808937 -0.07596293 0.0057136253 0.0073298514 -0.08308917 0.03505982
-0.11996702 -0.07064757 0.115832776 -0.05247268 0.0068933666 -0.13637404 -0.10528305 0.021362485
0.021639675 -0.102788 -0.06810558 -0.09858695 -0.12713599 -0.047499012 0.005535839 -0.085304976
0.023213055 0.026129898 -0.08989066 -0.008168859 0.060687657 0.075111926 0.06420413 -0.025231004
-0.026550462 0.08692151 0.088698536 0.09129975 0.0305264 0.029354572 0.07288575 -0.09158909
0.03268665 -0.123336904 0.076544136 -0.14012536 0.0019058565 0.10629094 -0.106633246 -0.12614349
0.07553209 0.08337438 0.09974998 -0.026189594 -0.10240968 0.045981295 -0.094800636 0.01028806
0.06508909 -0.10786355 0.07137826 0.0998914 0.05180121 0.018177064 0.04784516 -0.015262377
-0.06656171 0.033870995 -0.1192708 -0.05617827 0.024134666 -0.0004685223 -0.10379203 -0.006873518
-8.687377e-05 -0.11606935 -0.10144609 -0.122426786 0.07670899 0.051379144 -0.0515213 0.07131983
0.0090626385 0.07874209 -0.13836232 -0.11810986 -0.0545772 -0.01289776 -0.055407196 0.026441574
-0.030242205 -0.099775106 -0.048560828 -0.016994387 -0.03604738 0.015054226 0.03003832 -0.10259715
-0.019678952 -0.04967877 0.10961422 -0.022931606 -0.026512047 -0.081189305 -0.019885749 0.08873019
0.067104146 0.0154756345 0.097709626 -0.1293313 0.010154491 0.029114006 -0.009022149 -0.11234271
-0.05226595 0.101463586 0.036510684 -0.10496567 0.060777456 -0.018832386 0.08131394 -0.028446108
-0.0667066 -0.06082541 0.08544728 -0.053972892 0.08763209 0.09147596 -0.12805855 -0.09298375
0.053874347 0.010795802 -0.11865792 0.034192707 0.016956909 0.03494218 -0.017556012 0.100902036
0.08265309 -0.054555833 -0.014020076 0.008865259 -0.02274844 -0.10755122 0.0051912665 0.009471893
-0.0077083707 0.07186409 0.029612502 0.046988558 0.019567996 -0.06239917 0.01824003 0.09752786

arith.constant2 f4 [8]
00000000: 914a 993d 6273 dd3d 8ed7 753d 5829 963d
00000010: 5614 873d c191 21bf c112 093e e3c8 9a3d
0.074849255 0.10813023 0.060020022 0.073321044 0.06595676 -0.6311303 0.1338606 0.07557847

sequential_1/dense_1_2/BiasAdd/ReadVariableOp f4 [128]
00000000: ac22 e8bc 0957 b4bc a0b2 bdbc f214 edbc
00000010: 7ba1 e1bc c350 5abc 4127 a5bc 29fe c2bc
00000020: b590 f9bc b7be fbbc 141a c8bc 471c f9bc
00000030: 904e e4bc 5ec6 a3bc 2791 0ebd 65c0 12bc
00000040: 07aa e8bc 2b2c 47bc fa2c c7bc 4437 a5bc
00000050: f839 fdbc 9602 5bbc a2f3 01bd 2752 e2bc
00000060: 4246 98bc 7bd7 02bd 6810 20bc 7f95 bebc
00000070: a00f d4bc 2394 c1bc 83fa dcbc 2f33 febc
00000080: 2e83 afbc 6ddd 78bc a124 8ebc 018b e6bc
00000090: 2822 69bc da69 a7bc d7c8 01bd 8694 0cbd
000000a0: 5958 e5bc 9ec3 fbbc f6c8 74bc bb92 d9bc
000000b0: 7e6b abbc a5a9 9cbc ef2b 9ebc 12fb fcbc
000000c0: ee41 90bc a6b1 d4bc a18b 9ebc d5d3 f5bc
000000d0: fd62 bcbc 502f c5bc 6d27 acbc bb2c c8bc
000000e0: 82b7 e9bc 64c3 ccbc 684d 95bc 31a1 f3bc
000000f0: f006 c8bc 6daa 8abc 8151 00bd 36c2 e3bc
00000100: faaa d0bc f87a e6bc 4c37 f2bc 4eb7 9dbc
00000110: d06c 91bc 17a3 e5bc 3d15 1bbd 3a7d c5bc
00000120: b895 25bd 7c1f 97bc fd4c e0bc 138a febc
00000130: 7228 6dbc a0ca 5abc ec4a 81bc 1714 e0bc
00000140: 4f55 29bc 02ac 97bc d586 ffbc 4b85 95bc
00000150: 414b f5bc 9f73 14bd e955 b9bc 5bed d7bc
00000160: 15fa cabc f59f c1bc 53be e2bc b443 d4bc
00000170: 8c75 d4bc 557a cfbc 68cb e5bc fea1 f9bc
00000180: 6f41 cebc bb52 bbbc 11e3 d9bc 9f47 95bc
00000190: 5dd8 07bd 8251 e0bc b443 68bc fd3c e1bc
000001a0: 4834 22bd 20a3 c4bc 3fe5 eebc 7fd7 3abd
000001b0: a50f f6bc 14b4 dbbc aa6a c9bc b6a9 01bd
000001c0: ec80 dcbc b12f b1bc 50a7 04bd ea5f e1bc
000001d0: 1110 ccbc c73e 22bd 1b33 b8bc f616 23bd
000001e0: 0849 b2bc bc0d 03bd 52b0 f4bc c49c 52bc
000001f0: 88f9 c1bc 27c9 0bbd 6da2 debc 967d f3bc
-0.028336845 -0.022014158 -0.023156464 -0.028940652 -0.02754282 -0.013324919 -0.02016032 -0.023802834
-0.03046451 -0.030730588 -0.024426498 -0.030408992 -0.027869493 -0.01999205 -0.034806397 -0.008957003
-0.028401388 -0.012156527 -0.024313439 -0.020167954 -0.03091143 -0.013367316 -0.031726487 -0.027627064
-0.018588189 -0.03194378 -0.009769537 -0.023264645 -0.025886357 -0.023630207 -0.026974922 -0.031030266
-0.021424856 -0.015189511 -0.01735145 -0.028142454 -0.014229335 -0.020436216 -0.031685676 -0.03432133
-0.027996229 -0.030732926 -0.014940491 -0.026559224 -0.02092528 -0.019123862 -0.019308059 -0.030881438
-0.017609563 -0.025963616 -0.01935369 -0.030008236 -0.02299642 -0.024070412 -0.021014893 -0.024435392
-0.028529886 -0.024995513 -0.018225387 -0.029739948 -0.02441737 -0.016926968 -0.03132773 -0.027802568
-0.025472153 -0.028134808 -0.029567383 -0.019252446 -0.017752081 -0.028031869 -0.03786205 -0.024107564
-0.040425986 -0.01844763 -0.02738046 -0.031071698 -0.014474975 -0.013353974 -0.015782796 -0.02735333
-0.010335281 -0.018514637 -0.031192223 -0.018252036 -0.02994311 -0.036243077 -0.022623973 -0.026358297
-0.024777452 -0.023635844 -0.027678644 -0.02591119 -0.025934957 -0.025326887 -0.028051093 -0.030472752
-0.025177686 -0.022866597 -0.026597532 -0.018222628 -0.033165324 -0.027382616 -0.014176298 -0.027494902
-0.03960064 -0.024003565 -0.029162047 -0.04561567 -0.030036757 -0.026819266 -0.024586994 -0.03165599
-0.026916943 -0.021629186 -0.032386124 -0.027511556 -0.024910005 -0.03961065 -0.022485306 -0.03981682
-0.02176334 -0.03199552 -0.029869232 -0.012854759 -0.023678556 -0.03412738 -0.02717706 -0.02972297

sequential_1/dense_1/BiasAdd/ReadVariableOp f4 [256]
00000000: 6fe5 4c3c 0000 0000 0000 0000 0000 0000
00000010: 6639 d3bb 0000 0000 0000 0000 0000 0000
00000020: 0000 0000 ed09 293d a79b b0bc 0000 0000
00000030: 98ea 6f3c 0000 0000 0000 0000 f4fc 3cbd
00000040: 0000 0000 4c2d abbc 1299 37bd 0000 0000
00000050: 0000 0000 8955 19bd 0000 0000 faf3 113d
00000060: 0000 0000 95f7 573c fd03 92b9 b20a 86bc
00000070: 55fc ccbb 0000 0000 0000 0000 0000 0000
00000080: 0000 0000 0000 0000 9cf1 87bb 0000 0000
00000090: 91bc 3d39 0000 0000 0000 0000 0000 0000
000000a0: 1400 55bc eaee 053d 0000 0000 8bf2 733b
000000b0: cfed 21bd b5c9 15bc e7c9 d5bc 0000 0000
000000c0: c1dd ab3a 7458 203d 0000 0000 0000 0000
000000d0: 0000 0000 08e9 febc 0000 0000 25ac 20bd
000000e0: c09d 5fbb 4615 c5bb b6e0 1ebb b489 9cbc
000000f0: 6c9a 02bd 5267 fcbc 175a 893c 9e25 32bc
00000100: 1fc5 743c d064 c43c 270a 2c3d 0000 0000
00000110: 0000 0000 0000 0000 00bf 49bd 3cf5 013c
00000120: 7d63 f9bc 0000 0000 0000 0000 0000 0000
00000130: aedb a73b 0000 0000 382b 86bc 0000 0000
00000140: 24f9 9c3c 3d2e bd3b 0000 0000 0000 0000
00000150: 08d4 bf3b 0000 0000 5df1 c8bc 0000 0000
00000160: 0000 0000 07fd d3bc 0000 0000 c303 ffbc
00000170: b43e 2ebc 345b c8bc a503 0fbc 626c c5b9
00000180: 0000 0000 e490 cebc 0000 0000 ade3 133d
00000190: 0000 0000 0000 0000 0ad9 26bd 4391 5b3c
000001a0: 8e13 9f3c 6c42 febc 0000 0000 0000 0000
000001b0: cfa2 2b3c 0000 0000 ab23 9f3b 0e99 c2bc
000001c0: 9e24 323d 0000 0000 144c 95bc 0000 0000
000001d0: 0000 0000 1b42 a3bb 0000 0000 11b8 a33c
000001e0: 0000 0000 0000 0000 9d53 f0bc 0000 0000
000001f0: 350b 1cbc e06b 14bd 2d0c 093d 0000 0000
00000200: ced3 13bd 72e4 8cbc 0000 0000 7c61 c5bc
00000210: fd0f 36bd 0000 0000 0000 0000 0000 0000
00000220: e702 073d 0000 0000 0000 0000 143d 83bd
00000230: 0000 0000 0000 0000 0000 0000 0000 0000
00000240: 5843 0a3d 086e 1abb 0000 0000 77bf 41bc
00000250: f1b2 bcba 0000 0000 0000 0000 102d 273c
00000260: f1b1 c4bb 61b1 e5bb 0000 0000 10ce 5cbd
00000270: 9496 06bc 5d00 843c be9a 943c 0000 0000
00000280: ca1e 9abc d02b 1fbc 0000 0000 ee81 3abd
00000290: f1cc d4bc d32d 2abc c0fb 7bbc f492 383c
000002a0: f961 8ebc 993f cd3c 0000 0000 08d4 08bc
000002b0: 0000 0000 0000 0000 4dbd a03c 0000 0000
000002c0: 0000 0000 0000 0000 0000 0000 438d 38bd
000002d0: 1fab ab3c 0000 0000 0000 0000 3d87 28bd
000002e0: 104f 123c 0000 0000 8345 39bd 0d66 d13c
000002f0: 0000 0000 0000 0000 0000 0000 0000 0000
00000300: 0000 0000 0000 0000 0000 0000 0000 0000
00000310: 855a 02bb 0000 0000 6dc9 81bc 0000 0000
00000320: 5f1b 60bc 5292 ecbc 9c3a 0cbc 0000 0000
00000330: a745 eabc 0000 0000 0000 0000 32d7 a6bc
00000340: f6a9 ffbc 79af 2fbc 0000 0000 97fb 05bd
00000350: 4ac9 b9b9 12b1 223d b5b7 d03b a91f 9c3c
00000360: c959 d7bc 0000 0000 fe1e 73bb cf93 79bc
00000370: 066b ac3d 0000 0000 0000 0000 88cf 00bd
00000380: 9524 0ebd 71ae b7bc 0000 0000 1ce7 223d
00000390: 581b 4d3c 0000 0000 78c8 083c 0000 0000
000003a0: 1ee5 46bd 0000 0000 0000 0000 c1a8 a33b
000003b0: 9ab4 133d 0000 0000 0000 0000 fbd4 e9bc
000003c0: 1722 5ebc d540 a3bc fb75 263c 2d84 b4bc
000003d0: e0bd 573c 0000 0000 0000 0000 0000 0000
000003e0: 0000 0000 23db 063d 6d91 9dbc 5880 3dbd
000003f0: 0000 0000 555b 84bc 9d9a 583c 0000 0000
0.012505873 0.0 0.0 0.0 -0.0064460514 0.0 0.0 0.0
0.0 0.04126923 -0.021558596 0.0 0.014643334 0.0 0.0 -0.046139672
0.0 -0.020895623 -0.044823714 0.0 0.0 -0.03743509 0.0 0.035633065
0.0 0.013181587 -0.00027850262 -0.016362522 -0.0062556663 0.0 0.0 0.0
0.0 0.0 -0.004148675 0.0 0.00018094691 0.0 0.0 0.0
-0.013000507 0.03269855 0.0 0.0037223424 -0.039533433 -0.009142329 -0.026097251 0.0
0.0013112352 0.039146855 0.0 0.0 0.0 -0.031116977 0.0 -0.03922667
-0.0034121126 -0.006014499 -0.0024242825 -0.01910863 -0.03188555 -0.030810986 0.016766591 -0.010873226
0.014939575 0.023973852 0.04200187 0.0 0.0 0.0 -0.049254417 0.007932004
-0.030442948 0.0 0.0 0.0 0.0051226234 0.0 -0.01637803 0.0
0.019161768 0.0057733343 0.0 0.0 0.0058541335 0.0 -0.024529153 0.0
0.0 -0.025877489 0.0 -0.031129723 -0.010635067 -0.024457552 -0.008728896 -0.0003765552
0.0 -0.025215574 0.0 0.0361058 0.0 0.0 -0.04073433 0.013401332
0.019418504 -0.031037532 0.0 0.0 0.010475828 0.0 0.004856547 -0.023754623
0.043491952 0.0 -0.018224753 0.0 0.0 -0.0049822456 0.0 0.01998523
0.0 0.0 -0.029336745 0.0 -0.009524156 -0.03623569 0.033458877 0.0
-0.036090665 -0.017198775 0.0 -0.024094336 -0.04444884 0.0 0.0 0.0
0.032961752 0.0 0.0 -0.06408134 0.0 0.0 0.0 0.0
0.03375563 -0.002356412 0.0 -0.011825434 -0.001439659 0.0 0.0 0.010203615
-0.0060026576 -0.0070096706 0.0 -0.053907454 -0.008214612 0.016113454 0.018140193 0.0
-0.01881351 -0.009715036 0.0 -0.045534067 -0.02597663 -0.010386902 -0.015379846 0.011265505
-0.017380701 0.02505474 0.0 -0.008351333 0.0 0.0 0.019621516 0.0
0.0 0.0 0.0 -0.045056593 0.02095562 0.0 0.0 -0.0411446
0.008929983 0.0 -0.045232307 0.025561357 0.0 0.0 0.0 0.0
0.0 0.0 0.0 0.0 -0.001989038 0.0 -0.015843118 0.0
-0.013678401 -0.028878365 -0.008558895 0.0 -0.028597666 0.0 0.0 -0.020366285
-0.031208973 -0.010722988 0.0 -0.032710638 -0.00035435922 0.03971965 0.006369556 0.019058065
-0.02628793 0.0 -0.003709733 -0.015232994 0.084188506 0.0 0.0 -0.031447917
-0.034702856 -0.022422047 0.0 0.039771184 0.012518726 0.0 0.008348577 0.0
-0.048558347 0.0 0.0 0.0049944823 0.036060907 0.0 0.0 -0.02854394
-0.013557932 -0.019928375 0.010159965 -0.022035683 0.013167828 0.0 0.0 0.0
0.0 0.03292383 -0.019234383 -0.046264976 0.0 -0.016156832 0.013220456 0.0

sequential_1/dense_1/MatMul f4 [256, 40]
00000000: ad35 90bd eb04 f1bc e646 393d 19ee b83b
00000010: 54e4 5ebd 91dc c73d 4b3d af3d 364c b8bc
00000020: 6efe ec3d 53c8 863d 3001 ca3d 4c1e cb3d
00000030: 8ecd 523d a48f 4bbc 82e2 043e f3b6 6d3d
00000040: 7c92 6d3d 50c6 dabd 776c e53c 0cb2 9d3d
00000050: c0cd 5fbd 2bd8 53bd 283d 8cbd d6e0 da3d
00000060: 6984 0d3c d768 71bd e202 2dbd 30ef 923d
00000070: 35f7 113e f729 94bd b22c f4bc 67d6 783c
00000080: b99e 0c3e bd87 8ebd d3d1 bbbd cf5f 273c
00000090: 065c 013d 6457 b1bc 4714 c13d bc06 033e
000000a0: 1af9 ed3d d27d 54bd 8b17 0cbe 989c 6abd
000000b0: 90a6 e83c d8ea 073d 3874 9d3d aec9 cfbd
000000c0: 7c12 02be 6d4f eabd 20c7 7a3c b671 b93d
000000d0: b6fb 6cbd 00cb 673d 7e16 89bd 18d1 f7bd
000000e0: d459 52bd 66de e53d 379e acbd 50cc 82bc
000000f0: 5632 27bd 954d 06be 3812 f8bc 9657 a7bd
00000100: 60c2 53bc f45c 64bd 32fe 2cbd a006 7f3c
00000110: 207a 8b3b 200a c1bd 5c8c b8bc a4f2 b53d
00000120: 848c 85bd a047 9a3b 8001 0cbe 78e6 963c
00000130: 721d 56bd 200b a03b 704a 59bd 1836 7e3d
00000140: 42ac 9c3d 806c 913d 3c26 9a3d 8995 003e
00000150: 4698 8dbd a0e1 7abc 5e16 de3d c014 eebb
00000160: 46cd c63d fa22 d53d d0d5 ad3c 728f dbbd
00000170: 5864 903c 6a06 0ebe 3e17 7abd e01b ac3c
00000180: e0a3 cfbd 98c1 d1bd 1658 6fbd 80ea 473d
00000190: a0d4 413c 9e48 3cbd 4cf9 bb3d b275 5ebd
000001a0: 5ce3 6c3d 6ce9 c5bd 5e53 ef3d 3ab9 31bd
000001b0: 7c14 c8bd 8c5e 0dbe dbf4 093e 04b3 233d
000001c0: d615 9f3d 1304 89bd 4615 a0bd 2a11 9a3d
000001d0: 8a81 9c3d 5ae9 993d 4f36 08be 08b4 9f3c
000001e0: 1cdc 683d da02 ec3d b689 ce3d 9272 e73d
000001f0: 59c0 11be 58d1 a53c 7db2 bcbd f433 1abd
00000200: e879 8b3c 642f 09be 4e98 f43d 92b7 0cbd
00000210: 8055 ab3c 98b1 bbbd 426f a1bd 10b9 923d
00000220: ac79 aebd 42fa a23d 6280 54bd 7be6 023e
00000230: 00c6 683a 53be a0bd f65e dd3d 8ed3 11bd
00000240: ca88 0dbd 647e 3a3d d084 dcbc 7877 8d3c
00000250: 707d f23c a659 87bd 196b 86bd 424b b1bd
00000260: dcab 803d e00b 06bc a8d1 ad3d 883b 09bd
00000270: 6854 cabc 1a5a a5bd 10d3 df3c 85b5 02be
00000280: 5fb4 d5bd 1db8 043e cf9e 1d3d e29b 0abe
00000290: 645a 8dbd 2729 e0bc f60c 5e3d d7e3 da3d
000002a0: 49d4 183e a878 e4bd 897c 083e b064 073e
000002b0: 3642 12be 0905 e73d 9459 10be 5ee9 1cbe
000002c0: 06da bebd e486 c53d a6c9 1dbd 1dbd d8bd
000002d0: e74c b43c b95b a4bd 1bdb 2fbd 4704 cc3c
000002e0: bcef ea3d e041 10be 0802 e13c 4edc ef3d
000002f0: acde 18bd b45c d4bd 0cec c23c 8736 23bc
00000300: d37a ab3d cb21 92bc 1e0d 86bc fe5c 0a3e
00000310: d2af 12bd 78c3 f3bb 962a e23d 6023 0cbd
00000320: 1451 8f3d 707b 4abc 0087 92bd 208a 453c
00000330: 1082 8dbc 5099 2abd 3238 fc3d a2f0 4cbd
00000340: be73 a4bd 38e2 c3bc a636 ffbd 846e a5bd
00000350: a0db c8bb a0fd 74bc 70dd e6bd a401 84bd
00000360: f6d9 84bd 1c3b 843d 8e79 833d 0a4e 2fbd
00000370: 800c 7f3d dce8 01be 1f67 083e 482f 06bd
00000380: c0d0 a53d 2fc0 0e3e 801e f23a 0080 3ebb
00000390: b825 a03d dbca c0bd 9c62 293d 7834 01bd
000003a0: 8c57 4f3d f2b7 06be b619 f53d 4c9b bcbd
000003b0: b06c f4bd e887 0f3d fd7b 013e 89f8 0a3e
000003c0: 2abf b03d 6a7f 8a3d efbe 073e f01f e9bd
000003d0: cd60 0abe 4061 843b 22f4 a2bd 5817 6cbd
000003e0: 9c6b 8e3d 50b5 da3c 6079 7ebc 50a4 243d
000003f0: 3304 89bd 1cea 27bd b3c2 90bd 18a6 d03d
-0.07041488 -0.02942129 0.04523363 0.005643618 -0.05441697 0.097588666 0.085566126 -0.022497278
0.11571966 0.065811776 0.09863508 0.09917888 0.051465563 -0.012424383 0.12977031 0.058035802
0.058001027 -0.10682356 0.028005822 0.07699975 -0.054639578 -0.051719826 -0.06847602 0.10687415
0.008637526 -0.058937874 -0.042239077 0.07174528 0.14254458 -0.07234567 -0.029806469 0.015187836
0.13732423 -0.06959484 -0.0917088 0.010215714 0.0315819 -0.021648116 0.09427696 0.12795538
0.11619778 -0.051877804 -0.13680856 -0.057278246 0.028399736 0.03318295 0.076881826 -0.10145889
-0.12702364 -0.114409305 0.015306264 0.09054892 -0.057857238 0.05659008 -0.06693743 -0.12100428
-0.051355198 0.1122406 -0.084286146 -0.015966564 -0.04081949 -0.13115533 -0.030282125 -0.081710026
-0.012924761 -0.05575271 -0.042234607 0.015565544 0.004256502 -0.09425759 -0.022527866 0.08884171
-0.06520942 0.0047082454 -0.13672447 0.018420443 -0.052274175 0.0048841387 -0.053049505 0.062063307
0.07650043 0.07100773 0.07526824 0.12557043 -0.069138095 -0.015312582 0.1084411 -0.007265657
0.097071216 0.10407062 0.021220118 -0.107207194 0.017625973 -0.13869634 -0.06105732 0.021009386
-0.101386786 -0.10242003 -0.058433615 0.04880762 0.011830479 -0.04596769 0.09178409 -0.05431146
0.057834014 -0.09663662 0.11685823 -0.043389536 -0.09769532 -0.13805598 0.13472311 0.039965644
0.07767837 -0.0669023 -0.078165576 0.07522805 0.07641895 0.075152114 -0.13301967 0.019495025
0.056850538 0.115239814 0.1008486 0.113011494 -0.14233531 0.020241424 -0.092137314 -0.037647203
0.017025903 -0.13396984 0.11943112 -0.034354754 0.020914793 -0.09164733 -0.07882549 0.07164204
-0.08519301 0.07957889 -0.051880248 0.12783234 0.0008879602 -0.078488015 0.10809128 -0.035602145
-0.03455428 0.04553069 -0.026918799 0.017268881 0.029600829 -0.06608896 -0.06563396 -0.086569324
0.062827796 -0.008181542 0.084872544 -0.03350404 -0.024698451 -0.08073826 0.027322322 -0.12764557
-0.10434794 0.12960859 0.03848153 -0.13536027 -0.06902006 -0.027363373 0.05421158 0.10687988
0.1492473 -0.11155826 0.13328756 0.13222003 -0.1428307 0.11280257 -0.14096671 -0.15323398
-0.093189284 0.09644869 -0.038522385 -0.105829455 0.022009326 -0.08025307 -0.042933565 0.024904383
0.11471507 -0.1408763 0.027466789 0.11711942 -0.03732173 -0.10369244 0.023794197 -0.009961731
0.08373036 -0.01783838 -0.016363677 0.13512036 -0.035812207 -0.007439073 0.11043279 -0.034213424
0.06997886 -0.012358531 -0.071546555 0.012056857 -0.017273933 -0.041650116 0.12315406 -0.050034173
-0.080298886 -0.02391158 -0.12461595 -0.0807772 -0.006129697 -0.014953047 -0.112727046 -0.064456254
-0.06486885 0.06456587 0.06419669 -0.042799033 0.06226778 -0.12686485 0.13320588 -0.032759935
0.080964565 0.139405 0.0018472224 -0.0029067993 0.07819694 -0.094136916 0.041353807 -0.03154418
0.0506206 -0.13156107 0.119677946 -0.09209308 -0.11934793 0.03504172 0.12644954 0.13571371
0.08630212 0.067625836 0.13256429 -0.11383045 -0.13513489 0.0040399134 -0.07956721 -0.05763945
0.069541186 0.026697785 -0.015531868 0.040195763 -0.06690254 -0.04099475 -0.07068386 0.1018793
